pretrained_model2.pth (torch, 205828 bytes, 9 tensors)

lstm.weight_ih_l0 f4 [256, 1]
-0.0013232572 -0.021322459 -0.12289135 0.1440483 0.02124258 -0.03074023 -0.073632896 0.09671028
-0.019425338 -0.040878527 -0.30592114 -0.0250653 0.24851385 0.011824779 0.09144168 0.069442876
-0.009225769 -0.029757667 -0.0356176 0.018512573 0.107226856 -0.123180114 -0.049992777 0.14010975
-0.06740169 -0.7933955 0.1127472 -0.040738672 0.03599197 -0.044797037 -0.074639335 0.1607909
0.009876056 -0.08916135 0.033033896 -0.03907298 0.2614248 0.016947614 0.15056935 -0.093848
-0.11245469 0.044497047 -0.059244074 0.043850023 -0.140534 -0.0011905853 0.15425798 -0.05888729
0.10636742 0.18269661 0.071776144 -0.01732516 0.026611019 0.10659086 0.112112224 -0.00017170512
-0.039776415 9.353613e-05 -0.00975979 0.15765442 0.4046942 0.07261212 0.043311305 0.09254467
-0.012763857 -0.021476423 -0.09262897 -0.011419935 0.09517465 0.026168585 0.043929394 -0.13208863
0.0043474236 -0.09471542 -0.25601608 -0.09320263 0.03647203 0.094568335 0.13885084 0.13979131
0.106159605 -0.095529094 0.1199135 0.05721154 0.103048526 -0.020905549 0.06175324 0.117875114
-0.13713679 -0.26222652 -0.038396392 0.035055973 -0.013942724 -0.059183683 0.10691993 -0.13945104
-0.0045863707 0.013395509 0.06448828 0.02258329 0.1262524 0.059589066 -0.06598333 -0.10263366
-0.13533428 -0.09228914 -0.118502095 0.16662936 -0.120241165 -0.042231027 0.11696898 -0.059730463
0.022073412 0.17642446 -0.034596026 0.17582564 0.07895279 0.050224915 0.12976174 -0.12414472
-0.10450483 -0.12455176 -0.02778759 -0.1282692 -0.008389051 -0.09885746 0.08034207 0.15280119
0.34544876 0.06987224 0.27909565 -0.30218315 0.19546925 0.18522936 -0.20035216 0.07482667
0.23164345 0.009505383 -0.017233575 -0.054471366 0.27935457 -0.044721577 -0.07040211 -0.2199855
0.043717984 -0.14248216 -0.19713835 0.13053206 -0.23060443 -0.03558942 -0.23068792 0.27088702
0.20094067 0.31622925 -0.24281792 -0.02765311 -0.26954475 -0.17082618 -0.032133758 -0.38919264
-0.17501652 0.23292777 0.123491466 -0.1469967 0.26322126 -0.042232994 0.19639464 0.020150924
0.1538648 0.18514813 0.10985993 -0.18126045 -0.1801022 -0.20058785 0.19221476 0.18910193
0.16010867 0.1970918 -0.2216958 0.21047936 0.20143548 -0.018651605 -0.006278491 -0.04734452
-0.18737446 -0.0702458 0.021293662 -0.13447806 -0.36592272 -0.18356982 -0.060560253 0.18543053
0.14273871 -0.12147707 -0.03545205 0.14225039 -0.09593548 0.018167438 0.13731198 0.020127269
0.15678805 -0.18931751 -0.28757447 0.016256629 0.26621073 -0.0052217823 0.057739805 0.059953213
0.009752536 0.013344175 -0.0571583 0.12921047 0.17874974 -0.11863035 0.021791229 0.054379884
0.030345934 -0.7978526 0.012130326 0.009362931 -0.06812068 -0.056160215 -0.11636451 0.1377036
0.08860576 0.094893895 -0.16264182 0.04093779 0.19403957 0.024625123 0.21142535 -0.027374845
-0.014817207 0.1031519 -0.09511207 0.02982494 0.06946223 -0.016979871 -0.056388248 -0.07600722
0.03163832 0.13915278 0.0069018193 0.09021667 0.092860036 -0.06136612 0.1195459 -0.06941646
0.06357596 -0.0728593 0.07986258 -0.05872306 0.43069258 -0.084237136 0.14168772 0.17201598
00000000: 2571 adba 70ac aebc 76ae fbbd 6681 133e
00000010: eb04 ae3c efd2 fbbc d8cc 96bd 0a10 c63d
00000020: e321 9fbc 3e70 27bd b2a1 9cbe be55 cdbc
00000030: 6a7a 7e3e b8bc 413c c745 bb3d 1138 8e3d
00000040: ae27 17bc 5ac6 f3bc c3e3 11bd aea7 973c
00000050: c199 db3d db45 fcbd 3ac5 4cbd ee78 0f3e
00000060: e609 8abd f81b 4bbf 01e8 e63d 98dd 26bd
00000070: 516c 133d 197d 37bd 82dc 98bd 5fa6 243e
00000080: 2ecf 213c 3a9a b6bd 8d4e 073d fd0a 20bd
00000090: 79d9 853e b9d5 8a3c da2e 1a3e 6133 c0bd
000000a0: a54e e6bd 8942 363d eaa9 72bd 159c 333d
000000b0: 25e8 0fbe 6a0d 9cba cef5 1d3e cd33 71bd
000000c0: 29d7 d93d d214 3b3e 5fff 923d 7eed 8dbc
000000d0: 5aff d93c 4f4c da3d 189b e53d be0b 34b9
000000e0: 98ec 22bd d428 c438 87e7 1fbc 2970 213e
000000f0: 1434 cf3e aab5 943d 3267 313d 0f88 bd3d
00000100: 7f1f 51bc 53ef afbc 42b4 bdbd ae1a 3bbc
00000110: edea c23d 805f d63c 4fef 333d 3e42 07be
00000120: d574 8e3b 28fa c1bd 8a14 83be 05e1 bebd
00000130: b263 153d 0bad c13d ea2e 0e3e 7425 0f3e
00000140: 356a d93d c2a4 c3bd 3695 f53d a656 6a3d
00000150: 1b0b d33d 1d42 abbc f7f0 7c3d 8268 f13d
00000160: 966d 0cbe 8e42 86be 8945 1dbd da96 0f3d
00000170: 0670 64bc 976a 72bd d6f8 da3d 41cc 0ebe
00000180: 4449 96bb d678 5b3c 6e12 843d 9700 b93c
00000190: 4f48 013e aa13 743d 4522 87bd 9931 d2bd
000001a0: 1295 0abe 1702 bdbd 3ab1 f2bd e3a0 2a3e
000001b0: 0041 f6bd 71fa 2cbd 6f8d ef3d eea7 74bd
000001c0: 4dd3 b43c 9da8 343e 90b4 0dbd a30b 343e
000001d0: 00b2 a13d a4b8 4d3d 43e0 043e 963f febd
000001e0: a106 d6bd fe14 ffbd cda2 e3bc 0059 03be
000001f0: 3b72 09bc c875 cabd 628a a43d ea77 1c3e
00000200: a9de b03e 2d19 8f3d a0e5 8e3e c0b7 9abe
00000210: 1729 483e c4ac 3d3e 1e29 4dbe ba3e 993d
00000220: f133 6d3e 77bc 1b3c 6d2d 8dbc 5e1d 5fbd
00000230: 9007 8f3e f92d 37bd fb2e 90bd e143 61be
00000240: a111 333d d8e6 11be a3de 49be 32aa 053e
00000250: 9123 6cbe 36c6 11bd 7439 6cbe b4b1 8a3e
00000260: 64c3 4d3e cde8 a13e 43a5 78be c688 e2bc
00000270: c501 8abe 0fed 2ebe b09e 03bd 4244 c7be
00000280: 8837 33be 9e84 6e3e 18e9 fc3d 4e86 16be
00000290: f0c4 863e 81fc 2cbd ad1b 493e 8d13 a53c
000002a0: bc8e 1d3e 7997 3d3e 3efe e03d 579c 39be
000002b0: b66c 38be e766 4dbe f2d3 443e f0a3 413e
000002c0: 87f3 233e 6fd2 493e 3904 63be e787 573e
000002d0: 1a45 4e3e 40cb 98bc cdbb cdbb 54ec 41bd
000002e0: 17df 3fbe 08dd 8fbd 0c70 ae3c 9eb4 09be
000002f0: 395a bbbe baf9 3bbe 070e 78bd 80e1 3d3e
00000300: 192a 123e f8c8 f8bd 2b36 11bd 16aa 113e
00000310: d279 c4bd e1d3 943c 839b 0c3e f1e1 a43c
00000320: 0c8d 203e 73dc 41be f63c 93be 9f2c 853c
00000330: c64c 883e 7c1b abbb 9380 6c3d 8091 753d
00000340: 1ac9 1f3c 87a1 5a3c d21e 6abd c04f 043e
00000350: 2c0a 373e 78f4 f2bd 8583 b23c 71bd 5e3d
00000360: 0998 f83c 1140 4cbf 46be 463c fb66 193c
00000370: db82 8bbd 4108 66bd 8450 eebd 2c02 0d3e
00000380: f076 b53d bb57 c23d 948b 26be 62ae 273d
00000390: 4fb2 463e a0ba c93c e37f 583e 3641 e0bc
000003a0: dfc3 72bc 4e41 d33d 1eca c2bd 6f53 f43c
000003b0: 3742 8e3d 5f19 8bbc 5df7 66bd aca9 9bbd
000003c0: 2f97 013d 117e 0e3e a828 e23b 84c3 b83d
000003d0: 672d be3d 0a5b 7bbd 7bd4 f43d 382a 8ebd
000003e0: 1d34 823d 4237 95bd fe8e a33d 9787 70bd
000003f0: bd83 dc3e 8584 acbd 9616 113e f524 303e

lstm.weight_hh_l0 f4 [256, 64]
-0.0033887909 0.1556862 0.061692644 0.054834176 -0.05053361 -0.072608754 -0.1610004 0.09724695
-0.039820474 -0.06149029 0.011125271 -0.08518099 0.052735977 0.10927311 0.101684295 -0.15670435
0.09599528 -0.10852505 -0.15487985 0.12745398 -0.06868574 -0.039981574 0.007539861 0.051296912
0.2005501 -0.10616159 -0.016241424 0.10059827 -0.1645497 -0.000273849 0.09018708 -0.01823807
0.06213135 0.016069992 0.11499437 -0.046873435 0.08338784 0.05195401 -0.0616109 -0.036986656
0.11038629 0.123818256 -0.1118945 -0.13002668 -0.08885074 0.036692627 0.019081969 0.0024719504
0.061330166 -0.0072634644 -0.01723492 0.010128336 0.0039120093 0.049350258 0.052097857 0.022340093
0.118651815 -0.032870825 0.08937383 0.08073015 -0.024404109 -0.026633043 0.03392251 0.1265437
0.024439694 0.06263166 0.008211133 0.18128456 0.13515379 -0.02863513 -0.08041194 -0.15766773
0.019155659 -0.035100754 0.054507192 0.1486101 -0.16829774 -0.04389107 0.08260661 -0.048183035
-0.06364478 0.049447242 0.0233787 0.026920602 0.04456166 -0.09128868 -0.079623304 -0.17154917
0.13100147 -0.04319254 0.0136563815 0.02432404 0.013126189 -0.048953123 0.013862442 0.069669425
0.046928283 -0.110319965 0.0039723776 -0.09708967 -0.11299294 -0.02659519 -0.19483729 0.0052666157
-0.06024608 -0.13224234 0.0020666283 -0.022883758 -0.11182924 -0.1500977 -0.112571895 0.09253347
-0.06115314 -0.10101785 0.0033419784 -0.13882938 -0.050209973 -0.041801114 -0.01708113 0.01732333
-0.15709208 -0.09036712 0.069803454 -0.1895023 0.40644062 0.15787585 0.09706837 -0.10061058
0.10257149 0.058816385 -0.042453248 -0.17505656 0.057200804 0.048614822 -0.14711581 0.12880059
-0.05979371 -0.061351165 -0.059044395 0.06924247 -0.011425687 -0.08690585 -0.13623081 -0.10970335
0.11421424 0.009964649 0.031447597 0.11200065 -0.06813448 0.111347206 -0.1311059 0.15166667
0.093554586 -0.13317561 -0.16796729 0.04855123 -0.007804549 -0.13825925 -0.01156614 -0.012614984
-0.09619763 0.03772161 0.14929931 -0.17975417 0.055363093 -0.05356307 0.1621723 -0.034055144
-0.007266937 0.1387028 0.026466385 0.028561166 -0.1002884 -0.007676403 0.05817669 0.048397794
-0.055422504 0.07954141 -0.14954463 0.10588445 0.033530872 0.022925427 -0.106933884 0.024292493
-0.06118313 0.024083555 0.08876719 0.008545021 -0.14230542 0.05471227 -0.019411488 -0.030713903
0.120958306 0.07736151 0.07203314 -0.012060544 0.08814564 0.012301819 0.0138053 -0.0075221676
0.12485876 -0.09231833 0.010012129 -0.10640623 -0.15266378 0.087113746 0.029694324 0.041537628
0.11724556 -0.08974392 -0.11290273 0.012452027 0.06426212 0.072128266 0.05909158 0.005901936
0.025921464 0.060252875 -0.023218066 -0.041586775 -0.06512736 0.08144457 -0.05452787 -0.083164364
0.046335988 0.0055095814 0.12593314 0.050109692 0.06651151 -0.045482885 0.06182723 0.08045778
0.067117274 0.1295631 0.0075001097 -0.084592 -0.06486307 -0.1292859 -0.069729894 0.11110393
0.13298286 0.123756744 -0.0015420483 -0.097613744 0.0008625108 -0.13894385 -0.12956162 -0.02582022
-0.025774345 0.000237693 -0.0523224 -0.008032251 0.14926918 -0.08153696 0.07311228 0.1019981
00000000: 7a16 5ebb 346c 1f3e 6db1 7c3d cd99 603d
00000010: 55fc 4ebd e6b3 94bd 4add 24be 6929 c73d
00000020: cb1a 23bd 3edd 7bbd c546 363c 5f73 aebd
00000030: ae01 583d 95ca df3d db3f d03d 1b77 20be
00000040: 2c99 c43d 6242 debd d398 1ebe 4c83 023e
00000050: 1cab 8cbd b8c3 23bd f010 f73b b61c 523d
00000060: 015d 4d3e 3f6b d9bd bc0c 85bc 7706 ce3d
00000070: b77f 28be 6493 8fb9 01b4 b83d 0168 95bc
00000080: 717d 7e3d 37a5 833c 2b82 eb3d 5cfe 3fbd
00000090: 3ec7 aa3d bacd 543d b65b 7cbd 527f 17bd
000000a0: 3512 e23d 6d94 fd3d f228 e5bd b725 05be
000000b0: 60f7 b5bd 024b 163d ca51 9c3c 7200 223b
000000c0: 5735 7b3d 5b02 eebb 3f30 8dbc 52f1 253c
000000d0: 5030 803b 7f23 4a3d 9064 553d 9202 b73c
000000e0: b9ff f23d 8fa3 06bd a009 b73d d955 a53d
000000f0: 20eb c7bc 8a2d dabc 54f2 0a3d ac94 013e
00000100: c135 c83c 0745 803d fd87 063c a9a2 393e
00000110: c165 0a3e 3894 eabc 04af a4bd a673 21be
00000120: 54ec 9c3c cfc5 0fbd ef42 5f3d 3f2d 183e
00000130: 3e56 2cbe 1fc7 33bd a82d a93d 935b 45bd
00000140: 3258 82bd 3189 4a3d b084 bf3c 9888 dc3c
00000150: 4a86 363d 8ff5 babd 8b11 a3bd 96aa 2fbe
00000160: 4025 063e a9ea 30bd 04bf 5f3c 3643 c73c
00000170: 3a0f 573c 1283 48bd 4c1f 633c d8ae 8e3d
00000180: df37 403d 6fef e1bd b82a 823b f3d6 c6bd
00000190: d868 e7bd 28de d9bc 6d83 47be 9393 ac3b
000001a0: 98c4 76bd 896a 07be 4570 073b b876 bbbc
000001b0: bb06 e5bd 36b3 19be 188c e6bd 3082 bd3d
000001c0: b77b 7abd 72e2 cebd 1805 5b3b 4a29 0ebe
000001d0: f9a8 4dbd a537 2bbd baed 8bbc a8e9 8d3c
000001e0: bfdc 20be 6612 b9bd 1df5 8e3d e40c 42be
000001f0: fc18 d03e 35aa 213e c8cb c63d eb0c cebd
00000200: 0011 d23d 73e9 703d 75e3 2dbd 0742 33be
00000210: 644b 6a3d 5620 473d 87a5 16be 4de4 033e
00000220: 40ea 74bd 5c4b 7bbd 89d8 71bd ffce 8d3d
00000230: ce32 3bbc b2fb b1bd 1780 0bbe 26ac e0bd
00000240: 28e9 e93d c442 233c 32cf 003d 9960 e53d
00000250: 178a 8bbd 010a e43d a040 06be 824e 1b3e
00000260: 8c99 bf3d 305f 08be 9eff 2bbe a8dd 463d
00000270: 4dbd ffbb d593 0dbe e87f 3dbc 14af 4ebc
00000280: 4303 c5bd fa81 1a3d ebe1 183e 7a11 38be
00000290: 69c4 623d f364 5bbd 7f10 263e 687d 0bbd
000002a0: 7c1f eebb 1b08 0e3e 08d0 d83c 1bf9 e93c
000002b0: 0164 cdbd 568a fbbb ae4a 6e3d c43c 463d
000002c0: b502 63bd 9be6 a23d 3a22 19be f2d9 d83d
000002d0: ab57 093d 1bce bb3c 2700 dbbd 0d01 c73c
000002e0: 299b 7abd e04a c53c 93cb b53d 6a00 0c3c
000002f0: 83b8 11be f919 603d d704 9fbc b99b fbbc
00000300: fdb8 f73d b66f 9e3d 1c86 933d 9799 45bc
00000310: b485 b43d 928d 493c a02f 623c 847c f6bb
00000320: f3b5 ff3d 6511 bdbd ea09 243c 82eb d9bd
00000330: e553 1cbe b168 b23d 8341 f33c 5c23 2a3d
00000340: 711e f03d a9cb b7bd 8c39 e7bd 9603 4c3c
00000350: dc9b 833d fcb7 933d 030a 723d 0765 c13b
00000360: 4059 d43c b8cb 763d d033 bebc e556 2abd
00000370: 7e61 85bd 69cc a63d 9e58 5fbd 1452 aabd
00000380: ceca 3d3d b889 b43b 9ef4 003e d23f 4d3d
00000390: 3037 883d 434c 3abd 8d3e 7d3d 0cc7 a43d
000003a0: c874 893d 30ac 043e 7bc3 f53b 923e adbd
000003b0: eed6 84bd 8663 04be 8cce 8ebd 758a e33d
000003c0: a92c 083e 2d74 fd3d 8e1e caba b7e9 c7bd
000003d0: 1f1a 623a 4c47 0ebe cdab 04be ed84 d3bc
000003e0: b824 d3bc 3b3d 7939 0350 56bd b499 03bc
000003f0: 05da 183e dafc a6bd e4bb 953d 61e4 d03d

lstm.bias_ih_l0 f4 [256]
0.11954599 -0.21801518 0.0032564697 -0.028458048 0.09723675 -0.015516918 0.023371253 -0.00014776606
-0.0892362 -0.20398687 -0.23961508 -0.06536151 0.1706915 0.065644935 -0.1360089 -0.039055854
0.049130112 -0.117829904 -0.042892624 -0.16735666 0.04525067 -0.1080615 0.13006967 0.020326566
0.012824453 0.07799921 -0.021895587 -0.12869783 0.044839192 0.029600859 -0.082644425 0.07219473
0.05070505 -0.0210774 0.0114403935 -0.024023645 0.13700551 -0.016893938 -0.075212166 -0.18109335
-0.07792876 -0.08806122 -0.06660694 -0.0122606335 -0.010266752 -0.12389359 -0.004554375 0.04772568
0.012552275 0.09589461 0.078403756 -0.08001143 -0.008654016 -0.19061948 0.010098148 -0.0009925354
-0.010561819 0.049356185 0.073667645 0.06460898 0.5227576 -0.09721686 -0.016325798 -0.014863453
0.054843202 -0.22266461 -0.0010910729 -0.038675576 -0.10223908 -0.023251826 0.024117652 -0.21019956
-0.022873214 -0.08387142 -0.2229447 -0.14408977 0.004964161 -0.023106584 -0.05886043 -0.11988797
-0.094209984 0.054495614 0.025642542 0.05176661 0.0884374 0.0011318191 -0.11661349 -0.099450685
-0.06497054 0.042059217 -0.09518792 -0.040279247 -0.094862334 -0.046675567 -0.055385258 -0.18748096
0.07363103 -0.1302336 -0.1077734 -0.1279145 -0.020946017 -0.09209461 0.057348106 -0.0031069836
-0.1586646 -0.08834156 0.03933154 -0.053959135 0.086614594 -0.0074710688 0.10770643 0.02291987
0.007738774 -0.12239191 -0.095478624 -0.052898854 0.08719671 0.0723428 0.060856618 -0.21139497
-0.12414407 -0.047298267 -0.033776578 -0.027427943 0.08475807 0.08150744 -0.17943539 0.039661027
-0.090631776 -0.05490904 0.04945325 0.0042389166 -0.042046674 -0.07142289 0.115732834 0.044702947
-0.050324578 0.089493565 0.028633775 -0.013385296 0.045645565 0.10959216 0.08889235 0.01250445
-0.0736661 -0.035310376 0.054845776 0.0035535102 -0.062365722 -0.019315435 0.044363305 0.011212127
0.004331913 -0.06641826 0.015203114 -0.016725462 0.078565806 -0.059290048 -0.055718146 0.0038942464
-0.09037025 -0.09240965 -0.018976446 0.10038704 -0.06676027 0.030799983 -0.05521728 0.032516498
0.009958657 -0.09954962 -0.028090242 -0.077780224 0.044961706 0.0480564 -0.11705663 -0.10315072
-0.026161324 -0.061070453 0.08928466 0.06842485 0.10624561 0.02292052 0.034084227 0.0507505
-0.025332829 -0.05961036 -0.06813425 -0.036869664 0.01887077 -0.010200189 0.005209936 0.045618538
0.14122619 -0.26444933 0.069333375 0.10500899 0.07319323 0.10940617 -0.054685365 -0.15227935
0.11342326 -0.21092784 -0.29913568 0.006939157 0.18068406 0.0637376 -0.031095002 0.06091841
-0.15332757 -0.05150323 -0.004876639 -0.10779143 0.15210597 -0.02513206 -0.052082732 -0.008193997
-0.07787881 -0.1327534 0.02952402 0.07373001 0.11802931 -0.118865 -0.078584045 0.029982422
-0.14489976 -0.009008521 0.024158798 -0.0087241735 0.047482558 0.013714889 0.03760754 -0.058534484
0.056620438 0.0472911 0.021159584 0.10418868 0.012259718 -0.12666665 0.046218358 0.038390204
-0.0874648 0.05810961 0.02631093 -0.0757836 0.0995193 0.056938242 -0.07508427 -0.002272106
-0.08412339 -0.15343079 -0.11415429 0.015008428 0.576463 -0.049974043 0.011521014 -0.038139537
00000000: 87d4 f43d 5f3f 5fbe 7f6a 553b da20 e9bc
00000010: 1024 c73d ac3a 7ebc 1275 bf3c a6f1 1ab9
00000020: 78c1 b6bd efe1 50be a85d 75be 41dc 85bd
00000030: c1c9 2e3e da70 863d eb45 0bbe 08f9 1fbd
00000040: a83c 493d ce50 f1bd 2db0 2fbd 8b5f 2bbe
00000050: c458 393d 594f ddbd fc30 053e e683 a63c
00000060: a81d 523c 0dbe 9f3d 605e b3bc 5dc9 03be
00000070: 4da9 373d 807d f23c 7b41 a9bd d5da 933d
00000080: 19b0 4f3d 83aa acbc 7d70 3b3c 3ccd c4bc
00000090: 2c4b 0c3e 2865 8abc d608 9abd 8970 39be
000000a0: 1d99 9fbd 7159 b4bd 3869 88bd d3e0 48bc
000000b0: e135 28bc ecbb fdbd de3c 95bb 017c 433d
000000c0: 0fa8 4d3c 6564 c43d 2692 a03d 08dd a3bd
000000d0: 93c9 0dbc c131 43be b472 253c f617 82ba
000000e0: 7b0b 2dbc b629 4a3d 10df 963d b751 843d
000000f0: 71d3 053f a219 c7bd aebd 85bc d785 73bc
00000100: 44a3 603d 3102 64be 5502 8fba 486a 1ebd
00000110: b962 d1bd 9d7a bebc 6292 c53c 8e3e 57be
00000120: 9b60 bbbc c7c4 abbd 9e4b 64be 458c 13be
00000130: 67aa a23b 054a bdbc a217 71bd d387 f5bd
00000140: 2af1 c0bd cb36 5f3d 4f10 d23c 3a09 543d
00000150: ab1e b53d 8c59 943a 0ed3 eebd cdac cbbd
00000160: 460f 85bd 4946 2c3d e2f1 c2bd dafb 24bd
00000170: 2f47 c2bd e12e 3fbd a7db 62bd 02fb 3fbe
00000180: decb 963d f55b 05be 4db8 dcbd 05fc 02be
00000190: fb96 abbc 199c bcbd d9e5 6a3d 899e 4bbb
000001a0: f978 22be 6bec b4bd 1c1a 213d 4104 5dbd
000001b0: fe62 b13d decf f4bb 3095 dc3d 74c2 bb3c
000001c0: 8b95 fd3b 9ca8 fabd 4c8a c3bd 78ac 58bd
000001d0: 3094 b23d 7628 943d ca44 793d ec77 58be
000001e0: 3f3f febd d4bb 41bd 4f59 0abd 91b0 e0bc
000001f0: a495 ad3d 5fed a63d e9bd 37be 9a73 223d
00000200: 279d b9bd 4de8 60bd 7e8f 4a3d 9ce6 8a3b
00000210: 2239 2cbd 2a46 92bd 5605 ed3d 701a 373d
00000220: 2521 4ebd 6748 b73d 6191 ea3c 004e 5bbc
00000230: d8f6 3a3d db71 e03d 310d b63d 77df 4c3c
00000240: 41de 96bd 9da1 10bd f7a5 603d 02e2 683b
00000250: 3373 7fbd 673b 9ebc 4cb6 353d 12b3 373c
00000260: b8f2 8d3b 4c06 88bd 7b16 793c d603 89bc
00000270: 1ce7 a03d 1fda 72bd b638 64bd 9d36 7f3b
00000280: 0a14 b9bd 4541 bdbd 7e74 9bbc b897 cd3d
00000290: 9cb9 88bd 3f50 fc3c 842b 62bd 0530 053d
000002a0: a329 233c ace0 cbbd 821d e6bc 3d4b 9fbd
000002b0: c429 383d cad6 443d 63bb efbd af40 d3bd
000002c0: 4650 d6bc 0325 7abd e0da b63d 5422 8c3d
000002d0: 4c97 d93d d0c3 bb3c e79b 0b3d c2df 4f3d
000002e0: cb86 cfbc fe29 74bd f889 8bbd a504 17bd
000002f0: e096 9a3c b21e 27bc 1cb8 aa3b 81da 3a3d
00000300: 999d 103e e765 87be a8fe 8d3d f40e d73d
00000310: 55e6 953d 5810 e03d c3fd 5fbd 1eef 1bbe
00000320: 744a e83d 78fd 57be 5028 99be de61 e33b
00000330: 3e05 393e dc88 823d f2ba febc 9585 793d
00000340: e701 1dbe 0df5 52bd 37cc 9fbb c1c1 dcbd
00000350: abc1 1b3e c0e1 cdbc b454 55bd 1d40 06bc
00000360: ed7e 9fbd 82f0 07be 5cdc f13c c2ff 963d
00000370: 5ab9 f13d 7e6f f3bd acf0 a0bd b29d f53c
00000380: 9a60 14be 7a98 13bc ace8 c53c d6ef 0ebc
00000390: 127d 423d 6ab4 603c 5d0a 1a3d dbc1 6fbd
000003a0: d5ea 673d 50b4 413d dd56 ad3c e060 d53d
000003b0: fcdc 483c e7b4 01be 764f 3d3d 0c3f 1d3d
000003c0: bf20 b3bd 5804 6e3d 058a d73c 6f34 9bbd
000003d0: c6d0 cb3d 1338 693d c8c5 99bd 9de7 14bb
000003e0: e248 acbd f61c 1dbe b9c9 e9bd e9e5 753c
000003f0: 1493 133f 95b1 4cbd a3c2 3c3c 3438 1cbd

lstm.bias_hh_l0 f4 [256]
0.16530368 -0.08505121 -0.034905776 0.026814405 0.0635971 0.048610363 0.11281135 -0.13500646
-0.070330754 -0.15667945 -0.30521733 0.017119933 0.15641947 -0.13322096 0.087110214 -0.010738348
-0.09713289 0.030281091 -0.064379685 0.042388704 0.09029946 -0.09990827 -0.07454507 -0.07732955
-0.0899256 -0.111893386 -0.03436264 -0.11045827 0.13069732 -0.018209249 -0.12725727 0.12681888
-0.07362713 0.013725234 -0.021220788 -0.0038826764 0.22916424 0.017800067 0.0982025 -0.14780287
0.04044917 0.031636793 -0.109970726 -0.10198428 0.06991364 0.07324056 0.061499614 -0.10275643
0.052848067 0.10931588 0.09893435 -0.051659763 -0.03750003 0.05012215 -0.03351222 -0.08266912
-0.10436583 -0.14199285 -0.0403366 -0.051072117 0.47510338 -0.036615513 -0.058949757 0.124141976
-0.020565214 -0.24655817 0.090346955 -0.097383104 -0.054655854 -0.117410064 0.017457046 -0.18028885
-0.0394652 0.06406239 -0.13549802 -0.07609032 0.017363807 -0.011655627 -0.09445613 -0.043842774
0.014933077 -0.13888167 -0.049951255 -0.05911286 0.07795674 -0.12030565 -0.11788535 -0.083426826
-0.03990482 -0.01672873 0.097889006 -0.079130016 -0.012029181 -0.021310113 -0.07432145 -0.16928545
0.00993006 -0.049514122 -0.18721093 -0.13638575 -0.028675022 -0.029076321 -0.100072026 -0.08359995
-0.16727646 -0.013664208 0.054056585 0.07841232 -0.088241756 -0.006716593 0.04049534 -0.006110658
0.05145526 0.032791663 -0.07374643 0.11794858 0.093089566 0.024425281 -0.010193994 0.0053952965
-0.0016164591 0.007759433 -0.087399036 0.006726881 -0.11520019 0.06362177 0.021104556 0.107062824
0.06849065 0.06388713 -0.102064505 -0.02309842 -0.035443388 0.06350404 -0.059333783 -0.023481388
0.07035688 -0.077517815 -0.046947215 0.0069150757 0.002922333 -0.103163265 -0.08260373 0.059148517
0.059020948 -0.028381953 -0.011159296 0.009838935 0.030735563 0.037872538 -0.015258587 0.056162067
-0.09010289 0.026992844 0.013753883 0.026867395 -0.055471573 0.07669402 0.057696275 -0.051772095
0.08870225 0.02593266 0.011279394 -0.081341505 0.08367705 -0.0070968317 0.0387716 -0.035395324
-0.028517324 0.0763939 0.0062745004 0.07387782 0.018184187 0.013541602 0.10511904 0.03120947
0.0359791 0.054079708 -0.08001764 -0.059679322 -0.088518396 -0.024947777 -0.04646683 -0.033436738
0.072813 0.065733366 0.08112155 0.07817491 -0.023863878 0.0030284973 -0.01451131 -0.03408425
-0.011352255 -0.15939502 0.0092021115 0.09706329 -0.09323273 0.07509634 -0.117338836 -0.16259636
-0.06857186 -0.22495413 -0.07608162 0.014312869 0.113501124 -0.006026539 0.036809042 -0.06826141
-0.096199274 -0.15490437 0.08435837 0.029168012 -0.065839805 -0.06375125 -0.08067517 -0.0026972874
0.035001688 -0.008521073 0.09784256 -0.11555125 0.18643583 0.10345988 -0.027021829 0.13891953
-0.045515228 0.09026662 -0.17666672 -0.095121026 0.09299245 -0.045818724 -0.03372064 -0.1594429
-0.05472477 0.10794092 -0.010743339 -0.0723234 0.09384184 -0.06997171 0.019123653 -0.07843745
-0.08793349 0.09691365 -0.038468827 -0.05012185 -0.025571952 0.037248384 -0.046351425 -0.0007154806
-0.1119917 -0.11929742 0.016989846 0.023070483 0.5420748 0.040502217 -0.0054451157 -0.016678432
00000000: 5e45 293e 542f aebd 5cf9 0ebd e2a9 db3c
00000010: 323f 823d a91b 473d a309 e73d 223f 0abe
00000020: 9209 90bd 9470 20be 7245 9cbe 1a3f 8c3c
00000030: 6d2c 203e 136b 08be d766 b23d e5ef 2fbc
00000040: 9ced c6bd 0d10 f83c 7fd9 83bd c79f 2d3d
00000050: ecee b83d b59c ccbd 16ab 98bd f55e 9ebd
00000060: ea2a b8bd 5c28 e5bd d7bf 0cbd f237 e2bd
00000070: 85d5 053e 902b 95bc bb4f 02be cfdc 013e
00000080: d2c9 96bd cedf 603c 38d7 adbc 8074 7ebb
00000090: 08aa 6a3e 72d1 913c 641e c93d a359 17be
000000a0: 07ae 253d 9595 013d 5538 e1bd 22dd d0bd
000000b0: e22e 8f3d 26ff 953d 05e7 7b3d f771 d2bd
000000c0: 3777 583d 01e1 df3d 189e ca3d 3099 53bd
000000d0: a299 19bd e24c 4d3d 1c44 09bd 6d4e a9bd
000000e0: c1bd d5bd 9366 11be fe37 25bd ff30 51bd
000000f0: c040 f33e 26fa 15bd 4d75 71bd 263e fe3d
00000100: 6178 a8bc bf79 7cbe d307 b93d cb70 c7bd
00000110: d1de 5fbd b074 f0bd 1402 8f3c a49d 38be
00000120: 43a6 21bd 2433 833d febf 0abe 3ed5 9bbd
00000130: 8b3e 8e3c 3ef7 3ebc 3772 c1bd 7b94 33bd
00000140: dda9 743c ff36 0ebe b099 4cbd 5420 72bd
00000150: c9a7 9f3d cf62 f6bd e06d f1bd afdb aabd
00000160: 3d73 23bd b10a 89bc 087a c83d eb0e a2bd
00000170: 0b16 45bc 8c92 aebc d835 98bd 2a59 2dbe
00000180: b1b1 223c 52cf 4abd 39b4 3fbe b5a8 0bbe
00000190: e1e7 eabc 7731 eebc 90f2 ccbd 7336 abbd
000001a0: 854a 2bbe d8df 5fbc 706a 5d3d a396 a03d
000001b0: 18b8 b4bd de16 dcbb 71de 253d ea3b c8bb
000001c0: c0c2 523d 8d50 063d 5e08 97bd 068f f13d
000001d0: bea5 be3d 8717 c83c b604 27bc 07cb b03b
000001e0: 5edf d3ba d742 fe3b 44fe b2bd 2b6d dc3b
000001f0: 14ee ebbd 214c 823d 76e3 ac3c c143 db3d
00000200: d344 8c3d 41d7 823d 3207 d1bd e638 bdbc
00000210: 162d 11bd 680e 823d fb07 73bd 0a5c c0bc
00000220: 4517 903d a9c1 9ebd b94b 40bd dc97 e23b
00000230: 9d84 3f3b 4347 d3bd 252c a9bd b745 723d
00000240: f3bf 713d 4581 e8bc 7bd5 36bc 7c33 213c
00000250: 26c9 fb3c 3c20 1b3d 27ff 79bc 320a 663d
00000260: dd87 b8bd 1920 dd3c f757 613c 0319 dc3c
00000270: 2936 63bd c111 9d3d ee52 6c3d fa0e 54bd
00000280: 86a9 b53d bb70 d43c 35cd 383c 6096 a6bd
00000290: e05e ab3d 8a8c e8bb f8ce 1e3d b0fa 10bd
000002a0: 2a9d e9bc 6874 9c3d 539a cd3b 414d 973d
000002b0: 01f7 943c 98dd 5d3c a748 d73d 01ab ff3c
000002c0: d25e 133d af82 5d3d 4ae0 a3bd 4e72 74bd
000002d0: 2249 b5bd 485f ccbc 0154 3ebd f6f4 08bd
000002e0: fb1e 953d 379f 863d 0e23 a63d 2b1a a03d
000002f0: 2e7e c3bc c179 463b d8c0 6dbc ed9b 0bbd
00000300: cffe 39bc 7338 23be 74c4 163c 1ec9 c63d
00000310: cdf0 bebd 1ccc 993d 584f f0bd a97f 26be
00000320: 676f 8cbd 605a 66be aed0 9bbd 8680 6a3c
00000330: 4773 e83d 467a c5bb 14c5 163d a3cc 8bbd
00000340: 2004 c5bd 409f 1ebe 15c4 ac3d c1f1 ee3c
00000350: 05d7 86bd 0490 82bd 0639 a5bd f9c4 30bb
00000360: ee5d 0f3d f89b 0bbc ae61 c83d 22a6 ecbd
00000370: 09e9 3e3e c6e2 d33d e25c ddbc ec40 0e3e
00000380: 2d6e 3abd b5dd b83d 1fe8 34be d0ce c2bd
00000390: d372 be3d 6aac 3bbd a71e 0abd 0045 23be
000003a0: 1527 60bd 2110 dd3d d404 30bc 4a1e 94bd
000003b0: 2730 c03d 544d 8fbd 35a9 9c3c d0a3 a0bd
000003c0: 7916 b4bd aa7a c63d 7d91 1dbd 924c 4dbd
000003d0: 457c d1bc c391 183d feda 3dbd 178f 3bba
000003e0: e85b e5bd 3552 f4bd 4a2e 8b3c 4ffe bc3c
000003f0: 6ac5 0a3f a7e5 253d f16c b2bb 35a1 88bc

lstm.weight_ih_l1 f4 [256, 64]
-0.03434571 0.04694249 0.034164213 -0.025658293 0.18147473 -0.08369692 0.047777347 0.07125886
0.08603708 0.050586503 0.0692536 -0.09195061 0.09701289 0.0657837 -0.09227092 -0.17727014
-0.12431656 0.049486496 -0.0011189346 0.11356306 -0.09615066 -0.07191696 -0.10368184 -0.0439713
0.063655846 -0.19527891 -0.12467625 0.033815823 -0.2147115 0.05319445 -0.10679194 -0.029418625
-0.10979992 0.0888103 0.054177705 -0.07161116 0.2261388 0.015392073 0.16403033 -0.1411317
-0.08865865 -0.014945245 0.083030455 -0.097047076 -0.16761345 -0.120906234 -0.0450378 0.08829851
0.120429814 0.053867824 -0.024912957 0.013938959 -0.037316937 -0.0007761909 0.019314896 -0.011496063
-0.016198052 0.003114684 -0.059197944 -0.107711785 -0.20537484 -0.16349898 0.036467962 0.073048875
0.12789664 0.16329134 -0.028319303 -0.026388668 0.03353723 0.044051018 -0.022885768 0.107225426
0.12712266 0.052853305 -0.08846873 -0.110459305 0.08796824 0.050361127 -0.103237495 -0.0818891
-0.0026904976 0.116220385 0.017887233 -0.045679413 0.05111984 -0.10223464 0.09343573 -0.0022939495
0.12075562 -0.0998785 0.055904828 -0.0401595 -0.014776383 -0.12483689 -0.0043963864 0.060904905
-0.01754235 0.04081495 0.0099768825 0.009049007 -0.009757118 0.10338094 0.09086449 -0.08029177
0.09022323 -0.06813222 -0.11419196 0.0629503 0.05810384 -0.03497465 0.10554608 0.0057058875
-0.0068321154 0.0817267 0.065424226 0.077782646 0.09765061 0.032659527 0.104645945 0.0029565757
0.0589677 -0.0832778 0.11763143 0.055658735 -0.16309726 -0.008252883 0.123250745 0.13004698
0.039603077 0.044220988 0.13071367 -0.04723442 0.094254166 0.095947154 -0.11916556 0.17084418
0.16908692 0.007414136 -0.057463925 -0.116770916 0.11902063 -0.005255297 -0.05193983 0.030594114
0.037758354 0.075152814 -0.12574145 0.010930353 -0.23034817 0.1194658 -0.1060948 0.12826286
0.13730626 0.022185892 -0.086017944 -0.076000236 -0.009205546 -0.009627469 -0.044140037 -0.024644468
-0.12901619 0.19594331 -0.053384688 0.07739516 0.109855 -0.042666007 0.16748556 0.06851187
0.09982417 -0.023670284 -0.035846293 0.05668282 -0.12889121 0.07539036 0.14496705 0.07640159
0.083560206 0.13648346 -0.04523941 -0.031609032 -0.03363231 0.07772108 -0.03680053 -0.08594464
-0.07951193 0.01777241 0.13993032 0.11353255 -0.28429958 -0.058652904 -0.09333331 0.13490829
0.08202503 0.005846821 0.032714933 -0.078867264 0.20748611 -0.034577757 -0.076565064 0.08730178
0.02546386 0.024279699 0.0022991449 -0.021984424 0.16612749 -0.03204514 0.072944716 -0.008330264
0.015492272 0.095191605 -0.01989762 -0.05472266 -0.002430081 0.068747476 -0.18873735 0.034546386
-0.011217666 -0.07363928 0.0089654345 0.08948434 -0.22077914 0.020202544 -0.09774936 -0.0061428077
-0.14216776 0.15247934 0.099334486 0.033842213 0.2366252 0.021552803 0.2502299 -0.025000358
0.12188151 0.15814716 0.0021885496 -0.02649062 -0.041638225 0.12054377 0.09249124 0.037680052
-0.02660065 0.1271089 -0.18172233 -0.0073960256 0.15865159 -0.026190493 0.06525776 -0.054313503
0.07270021 -0.02497953 0.004204551 -0.076813035 -0.20175077 -0.044825852 -0.07699717 0.09517029
00000000: 16ae 0cbd c546 403d c6ef 0b3d 5731 d2bc
00000010: 83d4 393e 4a69 abbd 2eb2 433d 2af0 913d
00000020: 3534 b03d cb33 4f3d d5d4 8d3d 9a50 bcbd
00000030: b2ae c63d 9bb9 863d 89f8 bcbd 4e86 35be
00000040: ae99 febd 5ab2 4a3d 37a9 92ba c093 e83d
00000050: a3ea c4bd 3349 93bd 2557 d4bd 401b 34bd
00000060: ff5d 823d 32f7 47be 4356 ffbd 7682 0a3d
00000070: 55dd 5bbe 6ce2 593d bcb5 dabd 54ff f0bc
00000080: c8de e0bd 2de2 b53d 71e9 5d3d dfa8 92bd
00000090: ee90 673e 092f 7c3c 91f7 273e d484 10be
000000a0: ab92 b5bd e7dc 74bc df0b aa3d 9ec0 c6bd
000000b0: dca2 2bbe b09d f7bd 8e79 38bd d9d5 b43d
000000c0: e8a3 f63d 82a4 5c3d 4216 ccbc 3b60 643c
000000d0: a5d9 18bd 4a79 4bba 463a 9e3c fc59 3cbc
000000e0: c7b1 84bc ba1f 4c3b 8b79 72bd ff97 dcbd
000000f0: c84d 52be 476c 27be 6e5f 153d a69a 953d
00000100: 56f7 023e d835 273e e2fd e7bc 0c2d d8bc
00000110: 565e 093d d76e 343d ef7a bbbc 0199 db3d
00000120: 712c 023e b57c 583d 182f b5bd 7d38 e2bd
00000130: b128 b43d 7847 4e3d 2e6e d3bd 79b5 a7bd
00000140: 0f53 30bb f404 ee3d 3f88 923c 561a 3bbd
00000150: 0a63 513d 6560 d1bd 3b5b bf3d 1656 16bb
00000160: b94e f73d 198d ccbd 76fc 643d 4a7e 24bd
00000170: a418 72bc 7caa ffbd 900f 90bb 6c77 793d
00000180: f9b4 8fbc 942d 273d 1476 233c 4942 143c
00000190: 52dc 1fbc 63b9 d33d 2917 ba3d 0370 a4bd
000001a0: f5c6 b83d e888 8bbd 79dd e9bd 16ec 803d
000001b0: 4bfe 6d3d 9441 0fbd 8b28 d83d 74f8 ba3b
000001c0: f0df dfbb 5460 a73d 23fd 853d 824c 9f3d
000001d0: 0bfd c73d ffc5 053d 9d50 d63d 1cc3 413b
000001e0: 1d88 713d 8d8d aabd bfe8 f03d 6afa 633d
000001f0: f802 27be 1a37 07bc e36a fc3d 092b 053e
00000200: d636 223d 1121 353d ced9 053e e178 41bd
00000210: 5408 c13d f17f c43d 130d f4bd c7f1 2e3e
00000220: 1f25 2d3e 48f2 f23b 4b5f 6bbd 9725 efbd
00000230: 17c1 f33d a034 acbb dcbe 54bd 82a0 fa3c
00000240: 81a8 1a3d b8e9 993d 5ec2 00be 3915 333c
00000250: 64e0 6bbe 7caa f43d 3b48 d9bd 5757 033e
00000260: 039a 0c3e 30bf b53c 2d2a b0bd 03a6 9bbd
00000270: dcd2 16bc 88bc 1dbc 2fcc 34bd 32e3 c9bc
00000280: d21c 04be 5da5 483e e7a9 5abd 5b81 9e3d
00000290: a9fb e03d 8dc2 2ebd 5681 2b3e f44f 8c3d
000002a0: 9d70 cc3d 2fe8 c1bc 90d3 12bd 3f2c 683d
000002b0: 0ffc 03be 4366 9a3d 3e72 143e 7078 9c3d
000002c0: 9d21 ab3d 52c2 0b3e f64c 39bd 7978 01bd
000002d0: 08c2 09bd 3b2c 9f3d 27bc 16bd be03 b0bd
000002e0: 27d7 a2bd 7297 913c e549 0f3e c183 e83d
000002f0: b78f 91be 073e 70bd 8925 bfbd 6625 0a3e
00000300: bdfc a73d b096 bf3b 1800 063d 2985 a1bd
00000310: 3d77 543e 68a1 0dbd 25ce 9cbd 47cb b23d
00000320: 9699 d03c 38e6 c63c 40ad 163b ae18 b4bc
00000330: 531d 2a3e c441 03bd 0a64 953d a97b 08bc
00000340: 4cd3 7d3c d1f3 c23d 5500 a3bc de24 60bd
00000350: fe41 1fbb 7acb 8c3d 5d44 41be 8380 0d3d
00000360: 4dca 37bc 31d0 96bd c2e3 123c 9143 b73d
00000370: ed13 62be ce7f a53c d130 c8bd 9b49 c9bb
00000380: 6d94 11be 8b23 1c3e e16f cb3d 229e 0a3d
00000390: e04d 723e 818f b03c 221e 803e 8dcd ccbc
000003a0: 039d f93d 54f1 213e c56d 0f3b db02 d9bc
000003b0: d88c 2abd a7df f63d 0c6c bd3d 6656 1a3d
000003c0: 9be9 d9bc d628 023e 6b15 3abe 5c5a f2bb
000003d0: 9075 223e 728d d6bc dca5 853d d677 5ebd
000003e0: d9e3 943d dfa1 ccbc 55c6 893b 2750 9dbd
000003f0: c197 4ebe 509b 37bd b1b0 9dbd a4e8 c23d

lstm.weight_hh_l1 f4 [256, 64]
0.030684693 -0.055051614 -0.022934165 -0.028991753 0.10921717 0.08062544 0.06897644 -0.15167509
-0.077306785 0.05375683 0.029443119 -0.062134396 0.058969926 -0.08175651 0.11044708 -0.039261743
-0.04427374 -0.099458985 0.036842335 0.003865604 0.008540946 -0.1183754 -0.103484794 0.04636345
-0.16066606 -0.03788117 0.016126413 0.036136165 -0.021532856 0.050849337 -0.063571826 -0.08420503
-0.06420362 0.07639857 0.031076582 0.06831925 0.014054609 -0.05358914 0.08516549 0.04047361
-0.016053349 -0.041857682 0.0846372 -0.04499851 0.09170693 -0.10793852 0.07142839 0.04614062
-0.065641426 0.12753612 -0.04597783 0.061197344 -0.033560164 -0.07090014 0.082082115 0.10789916
-0.105244346 0.09003594 -0.10128804 -0.032687653 0.08742693 0.08048915 -0.03742912 -0.09406908
0.11653917 -0.13951075 0.1161878 -0.05433182 0.004921858 -0.008234773 -0.021875108 -0.01813058
-0.07937153 -0.095966436 -0.006883391 -0.1260507 -0.21925867 -0.10058939 0.12958303 0.10219759
-0.108479224 -0.08692749 -0.109310366 0.03266448 0.12477513 0.10813384 0.17944953 -0.029036481
-0.122051656 0.004997877 -0.13145746 0.048290785 0.13327861 0.0675841 -0.0063021625 0.007590225
-0.06516483 0.04561893 0.02376111 0.009514497 -0.017552193 -0.027650654 -0.07095119 -0.0045225658
-0.03551015 -0.13808173 0.12620963 0.10027546 -0.021442 -0.17299029 -0.0026854312 0.063069455
-0.17380208 0.019901782 0.08466625 -0.044079512 0.10597167 -0.06320611 0.013929097 0.08252366
0.03773161 -0.029910877 -0.011758985 0.13736175 0.14282161 -0.061802868 -0.07714892 0.04735396
-0.10953473 0.07886682 0.054341678 -0.11210196 -0.00046408566 -0.0002235992 -0.0121495 0.17380129
-0.09414545 0.13457459 0.04747481 -0.015369084 -0.12289117 0.11295631 0.043244448 0.12573513
0.009744231 -0.060642455 -0.08720766 0.08245443 -0.01600846 0.069157824 0.07916668 0.10146562
-0.06556303 -0.12236091 -0.0051132436 -0.042343836 -0.07093542 0.06295984 0.10729176 -0.07079764
-0.08702416 -0.08371191 -0.053337667 0.08985099 0.12913898 -0.016608512 -0.004411432 -0.02178763
0.005210845 -0.11932319 0.08672404 0.14965181 -0.07481361 0.024336785 -0.053229857 -0.103431225
0.068457544 0.023575166 0.11530786 -0.044723395 0.061228797 0.07386682 0.064185515 -0.0619774
-0.024032364 0.013934427 0.098490395 0.026769748 -0.005801595 -0.054348905 -0.07577265 0.030330667
0.11936746 -0.061904676 0.026903126 -0.10257777 -0.012891251 -0.015097388 0.09094543 -0.04819912
-0.14034969 0.051270247 -0.06798892 0.06924183 0.11942625 0.07451429 -0.07229519 0.022869786
-0.05680508 -0.11427264 -0.04167124 0.10828387 0.09060624 0.041853644 -0.010743974 0.05349274
-0.12134367 -0.0847725 0.033968817 -0.040757433 0.13974205 0.009011709 -0.018867413 0.10025037
-0.13539335 -0.09618371 -0.05300283 -0.041634813 0.08780053 -0.12386692 0.022016834 -0.082296565
-0.060357742 0.06544002 0.17740145 -0.025116244 0.021476973 0.07079504 -0.039547235 0.044656154
0.026268018 0.030515617 -0.005176772 -0.012937752 0.07789604 -0.039335523 0.10065539 -0.037069857
-0.064033404 0.07094355 -0.050217975 -0.05461636 0.008184847 0.09640983 -0.07549025 -0.07641395
00000000: 775e fb3c cd7d 61bd 6ee0 bbbc 1d80 edbc
00000010: 40ad df3d f31e a53d 8543 8d3d b750 1bbe
00000020: 0553 9ebd 1f30 5c3d b232 f13c a380 7ebd
00000030: 738a 713d f56f a7bd 1432 e23d ecd0 20bd
00000040: 6258 35bd 27b1 cbbd fde7 163d 1356 7d3b
00000050: 53ef 0b3c cd6e f2bd d6ef d3bd 9ae7 3d3d
00000060: a585 24be 4929 1bbd 8a1b 843c 8403 143d
00000070: ac65 b0bc 6547 503d f231 82bd b073 acbd
00000080: 307d 83bd da76 9c3d 5194 fe3c f7ea 8b3d
00000090: 4e45 663c 4980 5bbd 3f6b ae3d a8c7 253d
000000a0: 5082 83bc f672 2bbd 4556 ad3d 5c50 38bd
000000b0: d8d0 bb3d df0e ddbd 0c49 923d f2fd 3c3d
000000c0: 036f 86bd d498 023e 4053 3cbd 11aa 7a3d
000000d0: 6276 09bd 1834 91bd ab1a a83d 3cfa dc3d
000000e0: 598a d7bd c364 b83d 1b70 cfbd 7de3 05bd
000000f0: e40c b33d 7fd7 a43d 474f 19bd 4aa7 c0bd
00000100: 17ac ee3d e8db 0ebe dff3 ed3d 0b8b 5ebd
00000110: 8a47 a13b 24eb 06bc 6d33 b3bc 9586 94bc
00000120: 8a8d a2bd 0d8a c4bd 128e e1bb 6f13 01be
00000130: 5885 60be cf01 cebd 6ab1 043e f84c d13d
00000140: 5b2a debd 0a07 b2bd 1dde dfbd 31cb 053d
00000150: 1a8a ff3d 4675 dd3d 9ec1 373e eadd edbc
00000160: 38f6 f9bd 3bc5 a33b c99c 06be 8fcc 453d
00000170: 307a 083e 8869 8a3d 5f82 cebb 6cb7 f83b
00000180: 2375 85bd eada 3a3d a9a6 c23c b1e2 1b3c
00000190: 9ec9 8fbc a083 e2bc dc4e 91bd 0832 94bb
000001a0: 1773 11bd 4c65 0dbe 193d 013e 385d cd3d
000001b0: 22a7 afbc 5e24 31be 0ffe 2fbb 8f2a 813d
000001c0: 2cf9 31be 1009 a33c 8065 ad3d b88c 34bd
000001d0: ad07 d93d 3472 81bd de36 643c 2a02 a93d
000001e0: 768c 1a3d a807 f5bc c2a8 40bc 8fa8 0c3e
000001f0: d43f 123e 0125 7dbd 4100 9ebd 3af6 413d
00000200: bf53 e0bd ed84 a13d 6195 5e3d b695 e5bd
00000210: 8650 f3b9 f475 6ab9 b20e 47bc f7f8 313e
00000220: 54cf c0bd eccd 093e f274 423d 9cce 7bbc
00000230: 5eae fbbd a355 e73d 1721 313d b6c0 003e
00000240: 44a6 1f3c 3964 78bd ee99 b2bd dedd a83d
00000250: 2d24 83bc 9ea2 8d3d 2422 a23d 35cd cf3d
00000260: e945 86bd 5b98 fabd ff8c a7bb bb70 2dbd
00000270: 9746 91bd 17f1 803d c8bb db3d 5afe 90bd
00000280: b939 b2bd 2671 abbd 9978 5abd cc03 b83d
00000290: 023d 043e 930e 88bc c68d 90bb f97b b2bc
000002a0: bcbf aa3b b75f f4bd 609c b13d 533e 193e
000002b0: e137 99bd f05d c73c 8d07 5abd c0d3 d3bd
000002c0: 7833 8c3d b520 c13c 8726 ec3d e12f 37bd
000002d0: 0ccb 7a3d 7d47 973d b273 833d 04dc 7dbd
000002e0: 85df c4bc 394d 643c 55b5 c93d 3b4c db3c
000002f0: 4e1b bebb f59c 5ebd b12e 9bbd 0578 f83c
00000300: ed76 f43d c28f 7dbd f263 dc3c 4b14 d2bd
00000310: d335 53bc 095b 77bc 9941 ba3d 716c 45bd
00000320: d4b7 0fbe c000 523d c63d 8bbd a9ce 8d3d
00000330: c095 f43d f39a 983d 800f 94bd 6b59 bb3c
00000340: 72ac 68bd c607 eabd 76af 2abd efc3 dd3d
00000350: c48f b93d ba6e 2b3d 7e07 30bc 341b 5b3d
00000360: 0883 f8bd 349d adbd e322 0b3d 44f1 26bd
00000370: 8a18 0f3e d9a5 133c d58f 9abc 1150 cd3d
00000380: 8ea4 0abe f7fb c4bd 7f19 59bd 4489 2abd
00000390: c4d0 b33d f1ad fdbd a65c b43c 1a8b a8bd
000003a0: ae39 77bd 6b05 863d baa8 353e 95c0 cdbc
000003b0: 7af0 af3c fdfc 903d 48fc 21bd 5fe9 363d
000003c0: 0730 d73c e3fb f93c e9a1 a9bb ddf8 53bc
000003d0: f687 9f3d 491e 21bd 6a24 ce3d 90d6 17bd
000003e0: f223 83bd da4a 913d 5db1 4dbd 68b5 5fbd
000003f0: bd19 063c 8472 c53d a29a 9abd eb7e 9cbd

lstm.bias_ih_l1 f4 [256]
-0.12868322 -0.0108798975 0.16707982 -0.1126412 -0.1313768 0.046915285 0.0045334217 0.6688513
0.021778004 -0.06308393 -0.07566433 0.08471537 -0.087510906 -0.11124264 0.051542755 0.0071280547
-0.11624825 -0.16223523 -0.1899175 0.31494293 -0.008974813 -0.14909676 -0.22423339 0.012323927
0.21152867 0.012531559 -0.08771746 0.1750453 0.11208098 -0.09289728 -0.020702949 -0.061775345
0.07937447 -0.17328766 -0.015868364 -0.1945373 -0.16477925 -0.04419084 -0.19007336 0.11340681
0.14107603 0.041509952 0.57295114 0.06564772 0.12977569 0.008717185 0.006886884 -0.048349872
0.20128037 -0.007914791 0.109321415 0.006233787 -0.08525641 -0.07715134 -0.051598385 0.0035389522
-0.04385543 0.11497814 0.12484608 0.021419996 0.028693138 0.068623155 0.06646622 0.05731602
0.0017658316 -0.14687441 -0.025606673 -0.16610356 -0.16625334 -0.15118824 0.0070872726 -0.3934964
0.049412105 -0.029106388 -0.088447034 -0.08203621 -0.013949147 -0.14558585 -0.13673615 0.041250717
0.018775772 -0.06834632 -0.06569983 -0.11042665 -0.11129733 -0.07724121 -0.09477273 -0.03731871
-0.014517471 -0.35242942 -0.08021591 -0.067270935 0.008413084 -0.10491825 -0.14771867 -0.09932561
-0.14295691 -0.09270004 -0.07270542 -0.15673043 -0.15735951 0.025620997 -0.14289361 -0.038969312
-0.029511169 -0.04942108 -0.056897454 -0.20048109 -0.06040599 -0.18044062 -0.07244225 -0.024783304
-0.17195795 -0.066197984 -0.016858943 -0.076529466 -0.054323312 0.09187055 0.024813626 0.058860216
-0.054888636 -0.07013102 -0.0867774 -0.06129146 -0.15953346 -0.08661489 0.0023165757 0.004103983
-0.1160005 -0.0069108754 0.050287027 0.094558045 0.033060215 -0.049713094 0.07808143 -0.00033854262
-0.098537624 0.04091911 0.10254361 0.039157003 -0.016831089 -0.11165968 -0.09879714 0.04796935
0.033495028 -0.06879879 0.0031937698 0.04801681 -0.030881342 -0.027144311 -0.00401962 0.008590543
-0.036445666 -0.042174127 -0.057422176 -0.049511354 -0.087701716 0.057005204 -0.042321034 -0.0223712
0.031737488 0.0937363 -0.033795476 -0.075233795 -0.04968581 -0.011598312 -0.007428539 0.05781079
-0.05629173 -0.01928118 0.02511943 -0.034015473 0.08332849 -0.037175965 -0.015223205 -0.03195392
0.05472485 -0.016065175 0.03948096 -0.04211804 -0.019937392 0.10871396 -0.029878471 0.042115536
0.055264294 -0.009628576 -0.011280818 -0.066408314 0.03802193 0.080079146 0.034570843 0.07126922
-0.008607859 -0.13609862 -0.034814127 -0.041208953 -0.068043604 -0.00939924 -0.06915063 1.0458913
0.05909442 -0.11452392 0.07438265 -0.042140856 0.019667158 -0.16847351 -0.005349806 0.007242566
-0.00397834 -0.2122684 -0.17220953 0.011373013 -0.10640198 0.017811839 -0.2117982 -0.0951699
0.07686343 0.10904212 -0.0645302 0.10818802 0.018744411 -0.026810808 -0.11062233 -0.102705084
-0.02518287 -0.07626756 -0.15023279 -0.10103396 -0.084487274 0.07381888 -0.057996098 -0.10829553
0.035976283 0.10288488 0.53259593 -0.017419737 -0.019779101 -0.052270487 -0.0919027 -0.09119885
0.121879354 0.059195694 0.076302186 0.08227228 -0.14199604 -0.058786217 -0.06290814 -0.051427983
0.027610684 -0.061968375 0.10499397 -0.10862975 0.10930816 -0.1513423 -0.010136201 -0.0076751313
00000000: 89c5 03be 9941 32bc f916 2b3e 6eb0 e6bd
00000010: a487 06be 3e2a 403d 198d 943b d739 2b3f
00000020: c967 b23c 2632 81bd e6f5 9abd 407f ad3d
00000030: eb38 b3bd 2ed3 e3bd 7f1e 533d 7592 e93b
00000040: 9013 eebd fe20 26be bc79 42be 3340 a13e
00000050: 180b 13bc d2ac 18be 709d 65be 4cea 493c
00000060: f99a 583e 2b51 4d3c 36a5 b3bd 133f 333e
00000070: b68a e53d ee40 bebd 3b99 a9bc 2508 7dbd
00000080: 158f a23d 5272 31be 5ffe 81bc c934 47be
00000090: e4bb 28be 7401 35bd 97a2 42be d441 e83d
000000a0: 3c76 103e 5706 2a3d edac 123f 5072 863d
000000b0: ebe3 043e 86d2 0e3c 5fab e13b 840a 46bd
000000c0: 711c 4e3e 0aad 01bc e8e3 df3d cc44 cc3b
000000d0: ea9a aebd 8601 9ebd d458 53bd c4ed 673b
000000e0: c0a1 33bd a979 eb3d 4daf ff3d fd78 af3c
000000f0: df0d eb3c 4c8a 8c3d 711f 883d 34c4 6a3d
00000100: 7a73 e73a 3f66 16be 16c5 d1bc 0d17 2abe
00000110: 513e 2abe 17d1 1abe 5a3c e83b 5c78 c9be
00000120: 5964 4a3d 8570 eebc b823 b5bd 9a02 a8bd
00000130: f78a 64bc 7514 15be 9004 0cbe 83f6 283d
00000140: a6cf 993c 28f9 8bbd a28d 86bd 5e27 e2bd
00000150: dbef e3bd a430 9ebd 3418 c2bd 81db 18bd
00000160: b0da 6dbc a171 b4be 3d48 a4bd 58c5 89bd
00000170: 08d7 093c 61df d6bd 9043 17be 3a6b cbbd
00000180: 4c63 12be 85d9 bdbd 94e6 94bd f17d 20be
00000190: da22 21be 20e3 d13c b452 12be 499e 1fbd
000001a0: 68c1 f1bc c26d 4abd 4e0d 69bd ea4a 4dbe
000001b0: 456c 77bd 6dc5 38be 9a5c 94bd 5b06 cbbc
000001c0: bf15 30be cf92 87bd c41b 8abc 7bbb 9cbd
000001d0: 1f82 5ebd a026 bc3d f245 cb3c 6917 713d
000001e0: e8d2 60bd daa0 8fbd 59b8 b1bd c10c 7bbd
000001f0: bd5c 23be 2663 b1bd b1d1 173b b47a 863b
00000200: ac91 edbd a074 e2bb c5f9 4d3d a6a7 c13d
00000210: 266a 073d f59f 4bbd 28e9 9f3d 6c7e b1b9
00000220: 18ce c9bd cc9a 273d 6202 d23d 1863 203d
00000230: 5ae1 89bc d5ad e4bd 2856 cabd 827b 443d
00000240: 1532 093d 61e6 8cbd 914e 513b 46ad 443d
00000250: defa fcbc bf5d debc 04b7 83bb 59bf 0c3c
00000260: 0d48 15bd c7be 2cbd 8433 6bbd 6bcc 4abd
00000270: f59c b3bd 4a7e 693d d258 2dbd cf43 b7bc
00000280: 2bff 013d d1f8 bf3d 206d 0abd 2d14 9abd
00000290: 5983 4bbd d906 3ebc 1a6b f3bb 02cb 6c3d
000002a0: 2892 66bd 91f3 9dbc 43c7 cd3c cf53 0bbd
000002b0: 21a8 aa3d d345 18bd c06a 79bc 1de2 02bd
000002c0: 2a27 603d 1d9b 83bc cab6 213d f783 2cbd
000002d0: be53 a3bc 6da5 de3d b2c3 f4bc 5781 2c3d
000002e0: d05c 623d 2dc1 1dbc 2ed3 38bc 1501 88bd
000002f0: e2bc 1b3d 8900 a43d 289a 0d3d 99f5 913d
00000300: fa07 0dbc 705d 0bbe 4299 0ebd b8ca 28bd
00000310: 725a 8bbd 45ff 19bc d89e 8dbd c4df 853f
00000320: fe0c 723d 848b eabd ee55 983d e49b 2cbd
00000330: 051d a13c 5284 2cbe 6d4d afbb 0c53 ed3b
00000340: bc5c 82bb e35c 59be b257 30be e055 3a3c
00000350: 48e9 d9bd 22ea 913c a1e1 58be 70e8 c2bd
00000360: 936a 9d3d 7a51 df3d 6928 84bd ae91 dd3d
00000370: e18d 993c 57a2 dbbc f68d e2bd 0b57 d2bd
00000380: 4e4c cebc 2b32 9cbd a0d6 19be e5ea cebd
00000390: aa07 adbd 5a2e 973d 518d 6dbd 0cca ddbd
000003a0: de5b 133d 4fb5 d23d 3558 083f d6b3 8ebc
000003b0: c807 a2bc 9419 56bd 7c37 bcbd 76c6 babd
000003c0: e29b f93d 2f77 723d 5244 9c3d 5e7e a83d
000003d0: 6967 11be d1c9 70bd fcd5 80bd 26a6 52bd
000003e0: cd2f e23c 8dd2 7dbd 1407 d73d 4679 debd
000003f0: f5dc df3d 7af9 1abe 4f12 26bc ab7f fbbb
