pretrained_lstm_model.pth (torch, 205884 bytes, 9 tensors)

lstm.weight_ih_l0 f4 [256, 1]
0	0x3ed0e570	0.40800047
1	0x3e26442d	0.16236944
2	0xbd1149b7	-0.03547069
3	0x3d136771	0.03598732
4	0x3d778835	0.06043263
5	0x3e1a4536	0.15065464
6	0x3d7b882d	0.061409164
7	0x3dd8efc0	0.10592604
8	0xbeeac5b3	-0.45853958
9	0x3e0b176b	0.13583152
10	0xbd23cb38	-0.039988726
11	0x3cad7e2e	0.021178331
12	0x3d9d008e	0.076661214
13	0x3d93e1af	0.0722078
14	0xbe794748	-0.24343598
15	0x3e2ccf04	0.16875845
16	0x3c8b36cc	0.016993903
17	0x3dbb88ac	0.091569275
18	0x3e6104c5	0.21974476
19	0x3d338456	0.043827377
20	0xbe6b1d39	-0.22960366
21	0x3e3067cc	0.17227095
22	0x3c394b95	0.011309524
23	0x3d2384bf	0.03992152
24	0xbe13d586	-0.14436921
25	0xbd81b443	-0.0633321
26	0x3e0f50eb	0.13995712
27	0xbd3e5d6c	-0.046475813
28	0xbd8536b4	-0.065045744
29	0x3dbe94ce	0.09305726
30	0xbd826c01	-0.06368256
31	0x3e0cb025	0.13739069
32	0xbbf4fe9b	-0.0074766404
33	0xbe0388d8	-0.1284517
34	0x3db0a91f	0.08626007
35	0xbe0b30e9	-0.13592876
36	0xbeacf0b5	-0.33777395
37	0x3d904806	0.070449874
38	0xbe1d7a2d	-0.15378638
39	0x3e1e926c	0.15485543
40	0x3da51573	0.08060732
41	0xbe815042	-0.25256544
42	0x3d9cbc21	0.0765307
43	0x3e83fe35	0.25779882
44	0x3d31c658	0.043402046
45	0x3ec03839	0.37542894
46	0x3ecf5459	0.4049404
47	0x3c583ef7	0.013198606
48	0xbc56d3ef	-0.013112052
49	0xbe08e829	-0.13369812
50	0x3d9cf466	0.07663803
51	0x3d7def8f	0.06199604
52	0xbc224214	-0.00990345
53	0x3e178168	0.14795458
54	0x3e51ac1d	0.20475812
55	0x3dc4bf39	0.09606785
56	0x3e91bee9	0.28465965
57	0x3ce55ce0	0.027998388
58	0xbd1e1a42	-0.03859926
59	0x3d76dd39	0.060269568
60	0x3bf0f317	0.0073531973
61	0x3c851e3b	0.016249767
62	0x3df45bea	0.11931594
63	0xbbdc614b	-0.0067254654
64	0x3e0f2ec8	0.1398269
65	0xbd1dd8f7	-0.038536992
66	0xbe3f8d07	-0.18706141
67	0x3dd219d8	0.102588356
68	0x3d8d4785	0.06898407
69	0x3d818f3a	0.063261464
70	0x3bff7e8a	0.007797067
71	0xbe1cb5f5	-0.15303786
72	0xbdcbbc4a	-0.09948023
73	0xbc962e5a	-0.018332649
74	0xbae20fff	-0.0017247199
75	0x3d58186d	0.05275767
76	0xbdebfd86	-0.11522965
77	0x3d8efb8a	0.06981571
78	0xbdc6e8f5	-0.09712402
79	0x3a89e73a	0.0010521181
80	0x3db0a03c	0.08624312
81	0x3da697c3	0.08134415
82	0xbdbfe55d	-0.093699194
83	0x3d6eabe5	0.0582694
84	0xbe65ec3f	-0.22453402
85	0x3da15030	0.07876623
86	0xbdf33186	-0.1187468
87	0x3dacb185	0.08432297
88	0xbdc69d2a	-0.096979454
89	0xba00dc0a	-0.0004915601
90	0xbd065b52	-0.032801934
91	0x3db14ae8	0.08656865
92	0x3d869dca	0.065730646
93	0x3d11836d	0.035525728
94	0xbd9e7cca	-0.077386454
95	0x3d9a121b	0.075229846
96	0x3c7ef48e	0.015561236
97	0x3d830a5a	0.06398459
98	0x3e2cbf6b	0.16869895
99	0x3dd085e8	0.101817906
100	0xbe650019	-0.22363319
101	0xbb16a885	-0.002298863
102	0x3cf5fbde	0.030027326
103	0x3bfdd2e4	0.0077460874
104	0x3dec104a	0.115265444
105	0x3cd61fce	0.026138213
106	0x3ce868bd	0.028370256
107	0x3de94384	0.11389831
108	0x3d5737ca	0.05254344
109	0x3da08d05	0.07839397
110	0xbd1b4d23	-0.03791536
111	0xbd6cc3ac	-0.057803795
112	0xbc28754a	-0.01028187
113	0xbe503bbc	-0.20335287
114	0x3c38998c	0.011267077
115	0x3d57fd5d	0.05273186
116	0xbcdfe8e4	-0.02733273
117	0xbcf245da	-0.029574323
118	0x3d9b257f	0.07575511
119	0x3cfdb2a3	0.03096897
120	0xbdd6af31	-0.10482634
121	0x3d50bd84	0.050961986
122	0x3db221fb	0.086978875
123	0x3d8d459d	0.06898043
124	0xbd7e23c2	-0.06204582
125	0xbc1ae58d	-0.009454143
126	0xbd322cfa	-0.043499924
127	0xbd3acccc	-0.045605466
128	0x3e7cecf1	0.24699761
129	0x3dcdc8f8	0.10048097
130	0x3e5e156d	0.21687861
131	0x3e8f3739	0.2797182
132	0x3e1b8792	0.15188435
133	0xbe5518da	-0.20810261
134	0xbe03ed8d	-0.12883587
135	0xbd672cbe	-0.056439154
136	0xbdb8d9b1	-0.09025896
137	0xbe98d103	-0.29846963
138	0x3d046b5d	0.032328952
139	0x3e6793ea	0.22615018
140	0xbb9e3566	-0.004828143
141	0x3e1d46cf	0.15359043
142	0x3d556b92	0.05210454
143	0xbe1d44f1	-0.1535833
144	0x3e43d0b7	0.19122587
145	0x3e052502	0.13002399
146	0xbd6d1b69	-0.05788747
147	0xbe8877a6	-0.26653785
148	0xbe0dbe58	-0.13842142
149	0x3df986cf	0.12183916
150	0x3e487395	0.19575341
151	0xbe2314f6	-0.15925965
152	0xbe00173f	-0.12508868
153	0x3cc56b1e	0.024098929
154	0x3e1cbdf7	0.15306841
155	0x3dbb4474	0.09143916
156	0x3dea1f25	0.114317216
157	0xbe5321f7	-0.20618425
158	0x3dc7e0a2	0.09759642
159	0x3de07df7	0.10961526
160	0xbd8674c0	-0.06565237
161	0xbe74b58b	-0.23897378
162	0xbe56e51a	-0.20985833
163	0x3db672f0	0.08908641
164	0xbce04cc2	-0.027380351
165	0x3e4c0772	0.19924715
166	0xbd138f22	-0.036025174
167	0xbdfe3fc6	-0.124145076
168	0x3e668c93	0.22514562
169	0xbe2dd79a	-0.16976777
170	0xbdf4d0b3	-0.11953869
171	0xbe83b2d0	-0.2572236
172	0xbe516927	-0.20450269
173	0xbeae20ed	-0.34009495
174	0x3e9d1b3e	0.30684847
175	0xbe0b2345	-0.13587673
176	0xbdbbf38b	-0.091773115
177	0xbd70a9fc	-0.05875586
178	0x3e92864a	0.2861808
179	0xbd83cc87	-0.06435495
180	0xbe40db1d	-0.18833585
181	0x3e836fd3	0.25671253
182	0x3e92b079	0.28650263
183	0xbe04793d	-0.12936874
184	0x3f31ec1b	0.69500893
185	0x3e684857	0.22683845
186	0xbe41fac8	-0.18943322
187	0xbe6ca2d6	-0.23108992
188	0xbe575ec5	-0.21032245
189	0x3e6ed1a2	0.23322156
190	0xbe951619	-0.29118422
191	0xbe83d1ee	-0.257461
192	0x3e9c47dd	0.30523577
193	0x3e0c7674	0.13717061
194	0xbd4bc6e1	-0.049750213
195	0x3da4aeb9	0.08041138
196	0x3de27d8a	0.11059101
197	0x3dee32f0	0.11630809
198	0xbd710468	-0.058842093
199	0x3c5a1435	0.013310482
200	0xbeb61737	-0.35564587
201	0x3e6366ce	0.22207186
202	0x3d6d37a8	0.057914406
203	0x3e213e85	0.15746506
204	0xbd10befa	-0.03533838
205	0xbd738e44	-0.059461847
206	0xbecdce93	-0.40196666
207	0x3ce6722c	0.028130613
208	0xbdb97565	-0.09055594
209	0x3d69faa9	0.057123814
210	0x3d46e7ad	0.048560787
211	0xbd9e58cc	-0.077317804
212	0xbe003b55	-0.12522633
213	0x3e1da216	0.15393862
214	0x3d2ecc4d	0.042675305
215	0xbd8fe0c8	-0.070252955
216	0xbd06f373	-0.032947015
217	0xbe0f229a	-0.13978043
218	0x3c5745c2	0.01313919
219	0x3caa16aa	0.02076276
220	0x3cf2cba5	0.02963812
221	0x3e03fa5f	0.12888478
222	0x3dacb796	0.08433454
223	0x3d892495	0.066964306
224	0xbd4f53a7	-0.050616886
225	0xbdc45e85	-0.09588341
226	0x3df43bc4	0.11925462
227	0xbe4d4449	-0.2004558
228	0xbe86a456	-0.26297253
229	0x3dc96a3c	0.09834716
230	0xbe3c3619	-0.18380012
231	0x3e55bff1	0.20874001
232	0x3d95702b	0.07296785
233	0xbe108120	-0.14111757
234	0xbd87eef4	-0.066373736
235	0x3dc62f0d	0.09676943
236	0x3d9d7d1a	0.07689877
237	0x3e2b07da	0.16702214
238	0x3f0a5db4	0.5404923
239	0xbdf42898	-0.11921805
240	0x3c5de0ff	0.013542413
241	0xbeaea163	-0.34107503
242	0x3e03d8c8	0.12875664
243	0xbcb980b0	-0.02264437
244	0xbc53c3b6	-0.012925079
245	0x3dce2e50	0.10067427
246	0xbb8cdeb1	-0.004299008
247	0x3e38061d	0.17971082
248	0x3eb9c269	0.36281136
249	0x3e053b35	0.13010867
250	0xbc0956d2	-0.008382516
251	0x3e820fe0	0.25402737
252	0xbd7993ea	-0.060932077
253	0x3e13b6e2	0.14425233
254	0x3d1f3489	0.03886846
255	0xbd8a2dff	-0.06747054

lstm.weight_hh_l0 f4 [256, 64]
0	0xbd9edadc	-0.07756588
1	0xbc65b2d6	-0.014019689
2	0xbdb65302	-0.08902551
3	0xbe2198b7	-0.15780912
4	0xbdd49ca7	-0.103814416
5	0xbcbe2703	-0.023211962
6	0xbe55221f	-0.20813797
7	0x3cfb05eb	0.03064247
8	0x3cc5de3d	0.024153823
9	0x3c9f4eaa	0.01944669
10	0xbdb883dc	-0.09009525
11	0xbe443452	-0.19160584
12	0x3d021a32	0.031763263
13	0x3d1d4e20	0.038404584
14	0x3ce433bc	0.0278567
15	0xbc50bbbc	-0.012740072
16	0x3d9c35c7	0.07627445
17	0xbe12f068	-0.1434952
18	0x3e15b88e	0.14621183
19	0xbce3c836	-0.027805429
20	0xbda42b34	-0.08016053
21	0xbd497518	-0.049183935
22	0xbdb750c3	-0.08950951
23	0x3e3d5971	0.1849115
24	0xbdacc975	-0.084368624
25	0xbb6f0fe0	-0.0036477968
26	0xbe33dfe6	-0.17565879
27	0xbe241a3a	-0.1602563
28	0xbe468d79	-0.19389905
29	0x3d4a8595	0.0494438
30	0xbd2998c9	-0.041405473
31	0xbd5eb491	-0.05437142
32	0xbe16a756	-0.14712271
33	0xbda2019c	-0.07910463
34	0x3d098732	0.033576198
35	0xbcb9c8fd	-0.022678846
36	0xbd6fc1e1	-0.058534507
37	0xbd7cdec1	-0.061735872
38	0xbd06e451	-0.032932583
39	0x3d97f15b	0.07419082
40	0xbde5f40d	-0.112281896
41	0x3d10d1bd	0.035356272
42	0x3ddbb009	0.107269354
43	0xbdb03139	-0.086031385
44	0x3de6d1d1	0.11270488
45	0x3e33dad5	0.17563947
46	0xbdfbbf55	-0.12292353
47	0xbd98a514	-0.07453361
48	0x3dae3618	0.08506411
49	0x3db38c61	0.087670095
50	0xbcfa57a8	-0.030559376
51	0x3d8d779f	0.069075815
52	0xbc440fbb	-0.011966641
53	0x3ce6dd86	0.028181802
54	0xbd94ae32	-0.072597876
55	0x3e2e7f68	0.17040789
56	0xbe40bd3c	-0.18822187
57	0xbe1347a2	-0.14382794
58	0x3e043c2c	0.12913579
59	0x3e4c8115	0.19971116
60	0xbcb2338a	-0.021753091
61	0xbdb8dd42	-0.090265766
62	0x3e0fa93f	0.14029406
63	0x3d9d778c	0.076888174
64	0xbbaf9ebf	-0.0053595
65	0xbdfd0e32	-0.12356223
66	0xbc52fbe1	-0.012877435
67	0xbdf78f0d	-0.12087832
68	0xbd3a5295	-0.045488913
69	0xbdd20db1	-0.10256518
70	0x3d4b364f	0.04961234
71	0xbdd7725e	-0.10519861
72	0xbdb666b0	-0.08906305
73	0x3dc2c094	0.095093876
74	0xbd5dcd37	-0.054150786
75	0xbe17b0a1	-0.14813472
76	0xbdcf39ce	-0.10118447
77	0x3d29f32e	0.04149168
78	0xbde7728e	-0.113011464
79	0x3a26e7c6	0.00063669344
80	0x3e1c30c2	0.15252975
81	0x3c34e069	0.011039832
82	0x3d827a25	0.063709535
83	0xbe13c405	-0.14430244
84	0xbd0908ce	-0.033455662
85	0x3d1cf8a6	0.038323067
86	0x3d84288c	0.06453046
87	0x3df2ba1e	0.11851905
88	0xbd02032c	-0.031741306
89	0xbd849cb8	-0.06475204
90	0x3da86aec	0.08223519
91	0xbd74089b	-0.05957852
92	0xbd124fb3	-0.03572054
93	0x3da2fdeb	0.07958587
94	0x3b1ed6ca	0.002423691
95	0x3cef66bd	0.029223794
96	0xbd8ea8d9	-0.06965799
97	0x3ce0fb43	0.02746356
98	0xbd68ab0e	-0.056803755
99	0x3bead25e	0.007166191
100	0xbddcaec2	-0.1077552
101	0xbd2467cf	-0.040138062
102	0xbd78ef4a	-0.06077508
103	0x3d75b08e	0.05998283
104	0xbd580b96	-0.052745424
105	0x3c8a6573	0.016894078
106	0x3defaaa8	0.11702472
107	0xbdb8e11d	-0.09027312
108	0xbdcc4240	-0.09973574
109	0x3de14e34	0.11001244
110	0x3d6c9f1c	0.057768926
111	0x3c310522	0.010804446
112	0xbd06413c	-0.032777056
113	0x3cc2e33d	0.023789996
114	0x3d189169	0.03724805
115	0xbdc981cc	-0.0983921
116	0xbdddb18e	-0.108248815
117	0x3d958815	0.07301346
118	0x3dea4811	0.11439527
119	0xbd89c3e5	-0.06726817
120	0xbd38b18a	-0.04509119
121	0x3c83eb5e	0.016103443
122	0xbd603d26	-0.054745816
123	0x3ce4c96d	0.027928079
124	0xbded8cf4	-0.1159915
125	0xbc8b71ca	-0.017022032
126	0x3d28c856	0.04120668
127	0x3c0885c6	0.008332675
128	0xbdc850d3	-0.09781041
129	0xbcf2f121	-0.029655995
130	0x3d03a395	0.032138426
131	0x3da58211	0.08081449
132	0x3da37d12	0.0798284
133	0xbda42c9f	-0.08016323
134	0x3dba831e	0.0910704
135	0x3dc351a3	0.09537055
136	0xbe1e5068	-0.1546036
137	0x3e1aa2d9	0.15101184
138	0x3d171833	0.036888313
139	0xbd933e01	-0.07189561
140	0x3dfd488b	0.12367352
141	0x3d9097fe	0.0706024
142	0x3e223cca	0.15843502
143	0x3d9ac7ee	0.07557665
144	0x3d7fe4b1	0.062473956
145	0xbdf50a8e	-0.11964904
146	0xbdb4a14f	-0.0881983
147	0x3d59ceec	0.05317585
148	0x3d94daf2	0.07268323
149	0x3d6654cf	0.056233224
150	0xbd92f625	-0.071758546
151	0x3bbc90bb	0.005754558
152	0xbdb7e316	-0.0897886
153	0xbdbc435c	-0.09192535
154	0x3c5a5558	0.013326012
155	0x3d2d831e	0.04236137
156	0x3cd5e73e	0.026111241
157	0x3e0c9dce	0.13732073
158	0x3d94fb1d	0.072744586
159	0xbc4e8e20	-0.012607127
160	0x3d7f63bc	0.062350973
161	0xbd5b3e2f	-0.0535261
162	0xbd92011a	-0.07129116
163	0xbdb6ba90	-0.08922303
164	0xbdcf8cad	-0.10134254
165	0xbcfdc032	-0.030975435
166	0xbddeb172	-0.10873689
167	0xbc98e434	-0.018663503
168	0xbb1e689f	-0.0024171246
169	0xbdef37ef	-0.1168059
170	0xbd251788	-0.040305644
171	0x3e1676fd	0.14693828
172	0x3e16677c	0.14687914
173	0xbda97fe0	-0.08276343
174	0xbe047b24	-0.129376
175	0xbadf6ccd	-0.0017045975
176	0xbdb95912	-0.09050192
177	0x3deb3fd3	0.11486783
178	0xbdf4cfb9	-0.119536825
179	0x3d9c9ad2	0.07646717
180	0xbdda8a8a	-0.106709555
181	0x3d96943c	0.07352492
182	0xbd1173ea	-0.035510935
183	0x3cdb239e	0.026750382
184	0x3da148c5	0.07875208
185	0xbe22e3a5	-0.15907152
186	0x3d9f1a0b	0.07768639
187	0xbcd44210	-0.025910407
188	0xbd77bc7d	-0.06048249
189	0xbdde9879	-0.108689256
190	0x3dffead4	0.12495962
191	0x3d3c8331	0.04602355
192	0x3d3535e1	0.044240836
193	0x3ded3ad0	0.11583483
194	0xbcd31678	-0.02576755
195	0x3d700e2e	0.058607273
196	0xbd044078	-0.032288045
197	0x3d639c53	0.055569004
198	0x3d977304	0.07394984
199	0xbdd320e5	-0.103090085
200	0xbd9016d2	-0.07035603
201	0x3d5d60c5	0.054047365
202	0xbdd09cd3	-0.10186162
203	0x3bf88895	0.007584641
204	0x3cf1268c	0.029437326
205	0x3e1549ec	0.1457898
206	0xbddf8149	-0.10913331
207	0xbcd48bbe	-0.02594554
208	0x3dbc9fef	0.092101924
209	0x3de4c8ad	0.11171088
210	0x3d0cb670	0.034353673
211	0x3de89048	0.113556445
212	0x3e184f65	0.14874037
213	0x3d787868	0.060661703
214	0xbddf5dd9	-0.10906572
215	0xbde412a3	-0.11136367
216	0x3da56791	0.08076394
217	0x3d29013a	0.041260935
218	0xbdd4f69e	-0.10398601
219	0xbd09dbfe	-0.033657067
220	0x3dab030a	0.08350189
221	0xbd24c651	-0.04022819
222	0x3d5a052f	0.0532276
223	0x3e06529e	0.13117453
224	0x3da8c465	0.08240584
225	0x3d51bb03	0.05120374
226	0x3d213ef9	0.039366696
227	0xbd572a4d	-0.052530576
228	0x3e1aa6d0	0.15102696
229	0x3dd6ab1f	0.104818575
230	0xbd293878	-0.04131362
231	0x3caec0b7	0.021332128
232	0xbcd344dc	-0.02578967
233	0xbdb0dd14	-0.08635917
234	0xbd197e76	-0.03747412
235	0xbd7ced24	-0.061749592
236	0x3da9a28c	0.082829565
237	0x3db77d11	0.089594014
238	0xbda11262	-0.07864834
239	0x3d896cb2	0.06710185
240	0x3d4d970a	0.05019287
241	0x3dac47ac	0.08412108
242	0x3db5c328	0.08875114
243	0xbdbc448f	-0.09192764
244	0x3bb81a42	0.0056183646
245	0xbdd8cf26	-0.105863854
246	0x3c2c3e44	0.010512892
247	0xbe046bf0	-0.129318
248	0x3d56be6b	0.05242769
249	0xbdc3435a	-0.09534331
250	0x3c5cd60e	0.013478769
251	0x3cb08408	0.021547332
252	0xbe08c6ef	-0.13357137
253	0xbcc34842	-0.023838166
254	0x3af443e4	0.0018635956
255	0x3ddeda4e	0.10881482

lstm.bias_ih_l0 f4 [256]
0	0xbd36800e	-0.044555716
1	0xbd5c8e69	-0.05384675
2	0xbb563494	-0.0032685148
3	0xbcc0d55f	-0.023539243
4	0xbe049f72	-0.12951449
5	0xbe12026c	-0.14258736
6	0xbc113fe0	-0.008865327
7	0xbe77406f	-0.24145673
8	0xbe5afbc7	-0.21385108
9	0x3e37754a	0.17915836
10	0xbe1e9c38	-0.1548928
11	0x3dd4aa7c	0.1038408
12	0xbe643846	-0.22287092
13	0xbb4b9451	-0.0031063745
14	0xbe9becc1	-0.30454066
15	0xbb7d434a	-0.0038644844
16	0x3d32c7d8	0.043647617
17	0x3d7a2193	0.061067175
18	0xbe86e647	-0.26347563
19	0x3d08b6d8	0.0333775
20	0xbe27ec1f	-0.16398667
21	0xbc0c4c1f	-0.008563071
22	0xbd8c7f83	-0.068602584
23	0x3d83678e	0.06416236
24	0x3d9ef996	0.077624485
25	0xbe245235	-0.16046984
26	0xbe1b0e17	-0.15142094
27	0x3c2f925c	0.010716047
28	0xbc885341	-0.016641261
29	0xbd8e260a	-0.06940849
30	0xbe10c5a7	-0.14137898
31	0xbe270ca2	-0.16313413
32	0xbe0520e6	-0.13000831
33	0xbd9e5fa9	-0.077330895
34	0xbc97a300	-0.018510342
35	0xbdbcb663	-0.09214475
36	0xbdc8a7af	-0.09797608
37	0x3d7beb41	0.061503652
38	0xbe0bb5aa	-0.13643518
39	0xbd752931	-0.059853736
40	0xbcbd612b	-0.023117622
41	0xbe5f8e38	-0.21831596
42	0xbe361a61	-0.177835
43	0x3deae78a	0.11469944
44	0xbdbbc055	-0.09167544
45	0x3dda3b04	0.106557876
46	0x3ebd43cf	0.36965796
47	0xbda6f6b1	-0.081525214
48	0xbe07cd8d	-0.13262005
49	0xbe5feb48	-0.21867096
50	0xbd433415	-0.04765709
51	0xbdff498f	-0.12465202
52	0x3d30e9db	0.043191772
53	0xbc708ef3	-0.014682519
54	0x3d73f8aa	0.059563316
55	0xbd915cf3	-0.07097807
56	0x3f473ab3	0.7782394
57	0x3d08f5da	0.033437587
58	0x3daedf1d	0.08538649
59	0xbc90a732	-0.01765785
60	0x3e167323	0.14692359
61	0x3cacb182	0.021080736
62	0x3ce8dd56	0.028425854
63	0x3d67d94a	0.056603707
64	0xbddb779e	-0.107161745
65	0xbdc782fb	-0.097417794
66	0xbdcb1fdb	-0.09918185
67	0x3bfa9f07	0.007648352
68	0x3d0de3f1	0.03464121
69	0x3d36e000	0.044647217
70	0xbc1841c9	-0.009293028
71	0xbd98e229	-0.074650116
72	0xbe56be73	-0.20971088
73	0x3d286a8c	0.041117236
74	0xbe21fcd3	-0.15819101
75	0xbd4a54bf	-0.049397226
76	0xbe70fde1	-0.23534347
77	0x3d1e0180	0.03857565
78	0xbc579132	-0.013157176
79	0xbe06a563	-0.13149028
80	0xbaa39a9a	-0.0012481988
81	0xbd748b9d	-0.059703458
82	0xbe4c24cc	-0.19935912
83	0xbe30bd6d	-0.1725976
84	0xbe31682f	-0.17324899
85	0x3a652dc2	0.0008742475
86	0xbe3ded69	-0.18547596
87	0xbe032f2e	-0.12810966
88	0xbd1d0d61	-0.038342837
89	0xbe043989	-0.12912573
90	0xbdba14cd	-0.09085999
91	0xbdc08542	-0.09400417
92	0xbdfe77ba	-0.1242518
93	0xbd9b0f14	-0.07571235
94	0xbe93cf9e	-0.28869337
95	0xbdfad10b	-0.12246903
96	0xbe23815c	-0.15967315
97	0xbd0d99d5	-0.034570534
98	0xbc6c5dd0	-0.0144266635
99	0x3ccf8f45	0.02533687
100	0xbdbaee53	-0.09127488
101	0xbd0e6dd4	-0.03477271
102	0x3c70c6c0	0.014695823
103	0xbe0f7d0a	-0.14012542
104	0x3c301807	0.010747916
105	0x3cb5eada	0.022206713
106	0xbde986a2	-0.11402632
107	0x3bb70948	0.005585823
108	0x3c9b1f01	0.018935682
109	0x3d8713aa	0.065955475
110	0xbdb94c85	-0.09047798
111	0xbdeefaca	-0.11668928
112	0xbe1e35d1	-0.15450217
113	0x3c989595	0.018626014
114	0x3d95949f	0.07303738
115	0xb9a9ccbc	-0.0003238673
116	0x3d793ca5	0.06084885
117	0xbd6dc4d3	-0.058049034
118	0x39aed7ea	0.00033348735
119	0xbe0e5ba9	-0.13902153
120	0xbdde6ca1	-0.10860563
121	0xbc3cc4aa	-0.011521498
122	0x3d65b074	0.056076482
123	0x3c788d22	0.015170367
124	0x3d3e9c32	0.04653568
125	0xbdfcfae5	-0.12352542
126	0x3d931826	0.0718234
127	0xbd821cf8	-0.063531816
128	0x3d4cee1f	0.050031777
129	0x3ce3def0	0.027816266
130	0xbd2fa984	-0.042886272
131	0x3d59c80c	0.053169295
132	0xbda49ec0	-0.08038092
133	0x3ced7657	0.028987093
134	0xbc7ae22f	-0.015312715
135	0xbd85cea4	-0.06533554
136	0x3c38da81	0.011282564
137	0x3ccd6c26	0.025075983
138	0x3cb874cf	0.022516636
139	0xbad79538	-0.0016447669
140	0xbc78f084	-0.015194062
141	0x3ddf0474	0.10889521
142	0xbc9b0805	-0.018924722
143	0xbd57358e	-0.052541308
144	0xbc513cf0	-0.012770876
145	0x3ce1f787	0.02758385
146	0x3dc437db	0.09580966
147	0x3c61b8e1	0.013776989
148	0xbdb025d6	-0.08600967
149	0xbc61f115	-0.013790389
150	0xbb819f5f	-0.003955766
151	0xbdcce5df	-0.10004782
152	0x3b58d535	0.0033086066
153	0xbcb18e47	-0.021674288
154	0x3d8be5f6	0.06830971
155	0xbd0c48c2	-0.034249075
156	0x3ca15e8e	0.019698408
157	0x3de3b6bc	0.11118838
158	0xbc8cebc8	-0.017202273
159	0x3dab9edc	0.083799094
160	0x3b94bc36	0.004539038
161	0xbd6a4979	-0.057198975
162	0x3d728bd0	0.059215367
163	0x3cc84183	0.0244453
164	0x3c508571	0.012727127
165	0xbd13a1e3	-0.03604306
166	0x3be2ef13	0.0069254725
167	0xbc8d9781	-0.017284157
168	0x3d4b22e2	0.049593814
169	0x3d10c8db	0.0353478
170	0x3d4234bb	0.04741357
171	0x3d883e0c	0.066524595
172	0x3da6af0d	0.08138857
173	0xbdadcb9b	-0.084861
174	0xbd9066f7	-0.07050889
175	0xbd4bfea4	-0.04980339
176	0xbcf41df5	-0.02979944
177	0xbb9046c3	-0.0044029667
178	0xbbd4639b	-0.0064816005
179	0xbd8ae157	-0.067812614
180	0x3dc335ab	0.09531721
181	0xbd2ce86a	-0.042213835
182	0xbcdb9e62	-0.026808921
183	0xbdb134ce	-0.0865265
184	0x3d0d10aa	0.03443972
185	0x3ca2e1fb	0.019883147
186	0x3df9accc	0.121911615
187	0xbd1538bc	-0.03643106
188	0x3c254632	0.010087537
189	0x3d92218b	0.07135304
190	0xbda43c54	-0.08019319
191	0x3d6477d8	0.055778354
192	0x3e02a74d	0.12759133
193	0x3c3cf8e0	0.011533946
194	0x3d638888	0.05555013
195	0x3d311e87	0.043242004
196	0x3c9a83f0	0.01886174
197	0xbd968751	-0.07350028
198	0xbd0036cb	-0.031302255
199	0xbd9af7d1	-0.075667985
200	0xbda674bb	-0.08127733
201	0xbc9779a9	-0.01849063
202	0xbe97aaac	-0.296224
203	0x3e03b371	0.1286142
204	0xbe093d20	-0.13402224
205	0xbe334274	-0.17505819
206	0xbe790b7c	-0.24320787
207	0xbddd84b8	-0.1081633
208	0x3d782c80	0.060589314
209	0x3c3c0828	0.011476554
210	0xbe73d55e	-0.23811862
211	0x3dabc779	0.08387656
212	0xbe3d13ec	-0.18464631
213	0xbd954dc3	-0.072902225
214	0x3d5f48d1	0.054512803
215	0xbe04653e	-0.12929246
216	0x3dcc5d41	0.09978724
217	0xbe3d0efd	-0.18462749
218	0xbe279c3f	-0.16368197
219	0xbdba817a	-0.09106727
220	0x3c4c5f74	0.01247393
221	0x3d0a8a69	0.033823404
222	0xbd79928b	-0.06093077
223	0xbd0b51fa	-0.034013726
224	0xbe689a26	-0.22715053
225	0xbda33630	-0.0796932
226	0x3e226c48	0.15861619
227	0xbe0618a8	-0.13095343
228	0xbe71cf3c	-0.2361421
229	0xbc1e8ea9	-0.0096775675
230	0xbd40b622	-0.047048695
231	0xbdb132bd	-0.08652256
232	0x3d04b1e2	0.032396205
233	0xbdf4ce69	-0.11953432
234	0xbe00fb66	-0.12595901
235	0x3de45619	0.11149234
236	0xbdb80e6c	-0.08987126
237	0x3e8b24e0	0.2717657
238	0x3eda87de	0.42681783
239	0xbe234bb6	-0.1594685
240	0xbe01ab64	-0.12663037
241	0xbd28d1f6	-0.04121586
242	0x3deeaf1f	0.116544954
243	0xbc4c3489	-0.012463697
244	0x3cf895e7	0.030344917
245	0xbd8156a0	-0.063153505
246	0x3e053a4c	0.1301052
247	0x3d341e73	0.04397435
248	0x3f4ca129	0.7993341
249	0xbda4d75a	-0.080488876
250	0xbc9acb4d	-0.01889577
251	0xbd76b814	-0.060234144
252	0x3d741532	0.059590526
253	0x3e27eb0f	0.16398261
254	0x3e04bfa5	0.12963732
255	0xbdcdd990	-0.100512624

lstm.bias_hh_l0 f4 [256]
0	0x3db4385b	0.087998115
1	0xbd31fe45	-0.04345538
2	0x3dd57fc4	0.1042476
3	0x3df60b23	0.12013843
4	0xbd176826	-0.036964558
5	0xbdd12bad	-0.102134086
6	0xbd07ba02	-0.033136375
7	0xbe78ae11	-0.24285151
8	0xbded105c	-0.11575386
9	0x3e3b0af6	0.182659
10	0xbe7add60	-0.2449851
11	0x3ca90050	0.020630032
12	0xbe1f6fbd	-0.15569969
13	0xbd35a1a3	-0.044343602
14	0xbea65bdf	-0.32491967
15	0x3d78b536	0.06071969
16	0xbda626c9	-0.081128664
17	0x3d2040f8	0.03912446
18	0xbe81f9d5	-0.2538592
19	0x3df60bc5	0.120139636
20	0xbe147a06	-0.14499673
21	0xbda0eb9e	-0.078574404
22	0xbc04cd6b	-0.008105616
23	0x3d8bbc84	0.06823066
24	0xbd809cb4	-0.06279889
25	0xbdc2afbf	-0.09506177
26	0xbcd4d6c8	-0.025981322
27	0xbda962d6	-0.082708046
28	0xbd4e00e1	-0.050293807
29	0xbd8ac3eb	-0.0677565
30	0xbc506f99	-0.012721919
31	0xbe215406	-0.15754709
32	0xbe44cc75	-0.19218619
33	0xbd3d4402	-0.046207435
34	0xbd572b9a	-0.052531816
35	0xbe0a2e29	-0.13494171
36	0xbe5b7daf	-0.21434663
37	0xbd59a3ef	-0.053134855
38	0xbe66c548	-0.22536194
39	0xbd92aa6b	-0.07161411
40	0xbdb69db8	-0.08916801
41	0xbd295d7f	-0.04134893
42	0xbe46e7eb	-0.19424407
43	0x3d32afe8	0.04362479
44	0xbb9b8942	-0.004746587
45	0x3df64660	0.12025142
46	0x3ef2b303	0.474022
47	0x3d4d5861	0.050133113
48	0xbd870892	-0.065934315
49	0xbdd83ddc	-0.10558674
50	0x3cf3c579	0.029757248
51	0xbcdfe703	-0.027331835
52	0xbc77d981	-0.015127541
53	0xbd1e69d7	-0.038675155
54	0x3e109451	0.14119078
55	0xbe0b8073	-0.13623218
56	0x3f18152f	0.59407324
57	0x3dc5e8ae	0.09663521
58	0x3dcd090b	0.100114904
59	0x3d5b0a1d	0.05347644
60	0xbd82234a	-0.06354387
61	0x3e03f440	0.12886143
62	0x3d80134f	0.06253683
63	0x3e167373	0.14692478
64	0xbdaa077c	-0.08302209
65	0xbe2c2f4f	-0.16814922
66	0x3d8b072f	0.067884795
67	0xbdb69e62	-0.08916928
68	0x3c115072	0.008869277
69	0xbba39c11	-0.00499297
70	0x3ca72217	0.020401997
71	0xbe4f688b	-0.20254724
72	0xbca0d289	-0.019631641
73	0xbde40f7e	-0.111357674
74	0xbe169559	-0.14705409
75	0x3db1f701	0.086896904
76	0xbda2b0fc	-0.07943913
77	0x3d7e4c96	0.062084757
78	0x3cec7225	0.028863022
79	0x3c9ecfa6	0.019386124
80	0xbd3a0794	-0.045417383
81	0x3a8b4a7b	0.0010627055
82	0xbe49a2d0	-0.19691014
83	0xbe2544dd	-0.1613955
84	0xbe64050f	-0.22267555
85	0xbe0d44fd	-0.13795848
86	0xbcba419e	-0.022736367
87	0x3dc151c0	0.09439421
88	0xbc6f5dfa	-0.014609808
89	0xbcf5c5c4	-0.030001529
90	0xbdf44357	-0.119269066
91	0xbe1e1037	-0.15435873
92	0xbd5b44be	-0.053532355
93	0xbc8627fe	-0.016376492
94	0xbd40118d	-0.046891738
95	0x3ccffeef	0.025390116
96	0xbe11c1d0	-0.1423409
97	0x3d4eee11	0.050520007
98	0x3de4ea7e	0.11177538
99	0xbe4d533c	-0.20051283
100	0xbe86dfc6	-0.263426
101	0xbd6d8e12	-0.057996817
102	0xbe2118ea	-0.1573216
103	0xbd9b2f89	-0.07577426
104	0xbd9da50a	-0.07697494
105	0xbdc91319	-0.09818096
106	0x3aa208e0	0.0012362264
107	0x3d61043e	0.054935686
108	0xbdf2a966	-0.118487164
109	0xbd79f0ae	-0.061020546
110	0xbc8c7385	-0.017144928
111	0xbe243b6a	-0.1603829
112	0x3d29dd09	0.04147056
113	0xbd0dbfdd	-0.034606803
114	0xbd84c77f	-0.06483363
115	0xbe1db04a	-0.1539928
116	0x3d1d06b9	0.03833649
117	0xbd198737	-0.037482467
118	0x3cb166ff	0.021655558
119	0x3d8e432c	0.06946406
120	0xbe60ff9e	-0.2197251
121	0xbdb413ee	-0.08792864
122	0x3a116abb	0.0005547215
123	0x3d65217f	0.055940147
124	0x3bc83189	0.0061094207
125	0x3da1471d	0.07874892
126	0xbd34f1a5	-0.044175763
127	0xbdfa5f31	-0.122251876
128	0xbd2136eb	-0.039359014
129	0xbceabd28	-0.02865465
130	0xbd0d1dac	-0.034452125
131	0xbda22c75	-0.07918636
132	0x3d91a17e	0.0711088
133	0xbd1fa310	-0.038973868
134	0x3d83a768	0.064284146
135	0x3d8dd128	0.06924659
136	0x3c63bbf1	0.013899789
137	0xbd13e6e6	-0.036108874
138	0xbce5b387	-0.028039707
139	0x3cba9b1f	0.022779046
140	0x3c2165ae	0.0098509025
141	0xbde3b50e	-0.11118518
142	0x3c1a6f96	0.009426018
143	0x3cd97f59	0.026549982
144	0xbbd6c78c	-0.0065545496
145	0xbcba237b	-0.022721997
146	0xbdb3510f	-0.08755695
147	0x3d6e2d48	0.058148652
148	0x3dd811f0	0.10550296
149	0x3ca5db51	0.02024618
150	0xbd1e9488	-0.03871587
151	0x3dd1f08f	0.10250961
152	0x3c9e4cbc	0.0193237
153	0x3cdaf237	0.026726825
154	0xbda359b8	-0.07976097
155	0x3d1675cc	0.036733434
156	0xbc1f414a	-0.009720156
157	0xbdaa1090	-0.0830394
158	0x3c88a868	0.016681865
159	0xbdb59690	-0.08866608
160	0x3c1deb85	0.009638672
161	0x3d977a54	0.07396379
162	0xbd7362a0	-0.059420228
163	0xbd35f4ab	-0.044422787
164	0xbb43995b	-0.0029846046
165	0xbbe76dc5	-0.007062646
166	0xbb5b7bd5	-0.0033490558
167	0x3c973cb5	0.018461565
168	0xbd5c87b4	-0.053840354
169	0xbc8f7223	-0.01751048
170	0xbcde82a3	-0.027161902
171	0xbd6753fd	-0.05647658
172	0xbd9b65db	-0.07587787
173	0x3d7a70c5	0.0611427
174	0x3da803cb	0.082038485
175	0x3d85b8ab	0.06529363
176	0x3ce7c6c8	0.028293028
177	0x3ca15808	0.019695297
178	0x3d3d5439	0.0462229
179	0x3d6b2f47	0.057418134
180	0xbdb9293d	-0.09041069
181	0x3d1859f0	0.037195146
182	0xbabd1290	-0.0014425088
183	0x3dbab734	0.091169745
184	0xbdb09dd8	-0.08623856
185	0xbce125a1	-0.027483763
186	0xbddc5a1c	-0.107593745
187	0x3c4e3fef	0.012588485
188	0x3b1e850e	0.0024188193
189	0xbdbb9923	-0.09160068
190	0x3de73fa0	0.112914324
191	0xb9941025	-0.00028240788
192	0x3d818996	0.063250706
193	0xbe26b2df	-0.16279171
194	0x3cd1f04a	0.025627274
195	0x3cbfa470	0.02339384
196	0xbd7352c8	-0.05940512
197	0x3a944346	0.0011311553
198	0xbda8e66c	-0.082470745
199	0xbe555027	-0.20831357
200	0xbe5a1877	-0.21298395
201	0x3b303c34	0.0026891353
202	0xbea18adc	-0.31551254
203	0xbc641987	-0.013922102
204	0xbe65573a	-0.22396556
205	0xbdaa6252	-0.08319534
206	0xbe8b8e87	-0.27257177
207	0xbe009e82	-0.12560466
208	0xbd1066c8	-0.03525427
209	0xbe1d8000	-0.1538086
210	0xbe5b08b9	-0.21390046
211	0xbc18efea	-0.009334544
212	0x3d02cac8	0.03193167
213	0x3ccd6cd6	0.025076311
214	0x3c28feba	0.010314638
215	0x3dc3e328	0.09564811
216	0x3b6735ae	0.0035279798
217	0xbe26c923	-0.16287665
218	0xbe13e5d5	-0.14443143
219	0x3cb8af37	0.022544486
220	0x3b7ae469	0.0038283116
221	0x3dc5c37d	0.09656427
222	0xbe413d99	-0.18871154
223	0xbce21a5a	-0.027600456
224	0xbd31b731	-0.043387596
225	0x3da13db8	0.078731
226	0x3d27a42f	0.040928062
227	0x3c662592	0.014047043
228	0xbe24ab78	-0.16081035
229	0xbdc62da8	-0.09676677
230	0xbcca0760	-0.02466172
231	0xbe24d2c6	-0.16096029
232	0x3da02db0	0.07821214
233	0xbd436d43	-0.047711622
234	0xbe47cbbb	-0.19511311
235	0x3d99e723	0.07514789
236	0x3c22c7a3	0.009935292
237	0x3e8df854	0.27728522
238	0x3edd208c	0.43188894
239	0xbdfd3476	-0.12363522
240	0xbdf9ef3c	-0.122038335
241	0xbe8f0b64	-0.27938378
242	0x3de992db	0.114049636
243	0xbc9273b0	-0.01787743
244	0x3dfec110	0.124391675
245	0xbd483776	-0.048881017
246	0x3d3d77e1	0.046256904
247	0x3befed5e	0.0073219975
248	0x3f425cad	0.7592266
249	0x3c3b4ec3	0.0114323525
250	0x3db13ca4	0.086541444
251	0x3bcf7752	0.0063313628
252	0x3b9d1d1a	0.004794729
253	0x3d907478	0.07053465
254	0xbd7667e1	-0.06015766
255	0xbdccecd8	-0.10006112

lstm.weight_ih_l1 f4 [256, 64]
0	0xbc8ecf62	-0.017432872
1	0xbd7061fd	-0.0586872
2	0x3e2b12d3	0.167064
3	0x3da5601d	0.08074973
4	0xbd9686a0	-0.073498964
5	0xbcdcb8c1	-0.026943566
6	0xbe14abcc	-0.1451866
7	0xbdb98fa7	-0.09060603
8	0x3dca994e	0.09892522
9	0xbd2e550d	-0.04256158
10	0x3c469f48	0.012122937
11	0xbd7421b0	-0.05960244
12	0xbdd33326	-0.1031249
13	0xbce38af0	-0.027776212
14	0xbdb1efc6	-0.08688311
15	0xbdd0d19c	-0.1019623
16	0xbbe45f05	-0.006969335
17	0xbd3a7a68	-0.045526892
18	0xbb9fedb0	-0.0048806295
19	0x3c76e8d9	0.015070164
20	0x3d7ee533	0.0622303
21	0x3df6a3eb	0.120429836
22	0x3dc95093	0.098298214
23	0x3dc9dbb0	0.09856355
24	0xbdf43e5e	-0.11925958
25	0x3dcd6b4e	0.10030232
26	0x3da0cb5c	0.07851288
27	0x3e1a2e62	0.15056756
28	0xbd3669d4	-0.04453452
29	0xbe359800	-0.17733765
30	0x3d8fd207	0.070224814
31	0x3e20476e	0.15652248
32	0xbbe3ce76	-0.0069521023
33	0xbe177072	-0.14788988
34	0xbe0c5cb7	-0.13707243
35	0xbdc79834	-0.09745827
36	0x3db156fe	0.086591706
37	0xbb910e3d	-0.004426746
38	0xbddd213d	-0.10797355
39	0xbc03360e	-0.008008493
40	0x3da44e51	0.0802275
41	0xbc46bf29	-0.012130537
42	0xbe1b9f92	-0.1519759
43	0xbc1a5050	-0.009418562
44	0x3d078dc1	0.03309417
45	0xbcb3cc04	-0.021947868
46	0x3e606b44	0.21915919
47	0xbe0df78c	-0.13863963
48	0x3d3e29f3	0.046426725
49	0xbdcd73c9	-0.1003185
50	0xbd467dd9	-0.04845986
51	0xbd483acb	-0.048884194
52	0xbd0dbc10	-0.03460318
53	0xbd196b0e	-0.03745561
54	0xbc011e71	-0.007880793
55	0xbe43f215	-0.19135316
56	0x3c6e7b8a	0.014555821
57	0x3cd75468	0.026285365
58	0xbdcd6c81	-0.10030461
59	0xbd3e2983	-0.046426307
60	0xbdb9cdc6	-0.09072451
61	0x3d9953bb	0.074866734
62	0xbd2e55dc	-0.04256235
63	0xbdd575aa	-0.10422833
64	0x3e02fcc8	0.12791741
65	0x3cb7506f	0.02237722
66	0x3d64140b	0.055683177
67	0x3e2efcad	0.17088576
68	0x3e28c1cf	0.16480182
69	0xbc68b1ad	-0.014202517
70	0x3dd0e1b2	0.10199298
71	0xbc872a53	-0.016499674
72	0xbd506dad	-0.050885845
73	0x3c29a5f8	0.010354511
74	0x3e1a320e	0.15058157
75	0xbd8c8739	-0.06861729
76	0x3dc33e5d	0.09533379
77	0x3dee58e3	0.116380475
78	0x3d5be898	0.053688616
79	0x3d3aa90b	0.04557137
80	0xbd71315c	-0.058884963
81	0x3da38a7d	0.07985399
82	0xbcde88b6	-0.027164798
83	0xbe40d6ff	-0.18832015
84	0xbb146ac3	-0.0022646643
85	0x3dfc8e72	0.12331857
86	0x3df92767	0.121657185
87	0xbdac953a	-0.084269
88	0x3985b45e	0.0002550212
89	0x3def14df	0.11673903
90	0x3d7c825a	0.06164775
91	0xbd62c220	-0.055360913
92	0x3db834ef	0.08994471
93	0xbdc8de3f	-0.09808015
94	0xbbedf2a3	-0.0072615906
95	0x3d989650	0.07450545
96	0x3c764b1b	0.015032555
97	0xbc7b0f3d	-0.015323457
98	0xbdfe7121	-0.124239214
99	0xbd59bec9	-0.053160463
100	0x3d5f317d	0.054490555
101	0x3d38444a	0.044987
102	0xbdcb0289	-0.09912593
103	0x3bac4f26	0.0052584587
104	0x3d48bd06	0.04900839
105	0x3d1e7db9	0.038694117
106	0x3d9f0acf	0.077657335
107	0xbe215989	-0.15756811
108	0xbe13d767	-0.14437638
109	0x3a788f16	0.00094817707
110	0x3e4b8f5a	0.19878903
111	0xbc464e6f	-0.012103661
112	0x3b0ea6a5	0.0021766808
113	0xbd7f0f80	-0.06227064
114	0xbd76abb8	-0.060222358
115	0x3dae96f4	0.08524886
116	0xbcef5c8f	-0.02921894
117	0x3ba86134	0.0051385406
118	0x3e328fce	0.1743767
119	0x3c7bca0c	0.015367996
120	0x3def9559	0.11698408
121	0xbd6aa0a9	-0.057282124
122	0xbe038859	-0.12844981
123	0xbdecbacc	-0.11559066
124	0xbe5008c4	-0.20315844
125	0x3bc3d11f	0.005975857
126	0xbd821ed2	-0.06353535
127	0x3b714ee6	0.0036820709
128	0x3e209929	0.15683426
129	0xbb9b61ae	-0.004741869
130	0x3e182ca6	0.14860782
131	0x3d754463	0.05987967
132	0x3e2c2a46	0.16813001
133	0x3cae0632	0.021243189
134	0x3d931aac	0.07182822
135	0xbdf4fa53	-0.11961808
136	0x3c73bcd2	0.014876561
137	0xbcf71427	-0.030160977
138	0x3d772214	0.060335234
139	0x3d794a67	0.06086197
140	0xbcd3407b	-0.025787583
141	0x3d722345	0.059115667
142	0x3d942e04	0.07235339
143	0x3d30e9d2	0.04319174
144	0x3de03b7b	0.10948845
145	0x3dc9abb9	0.098472066
146	0x3cfc0838	0.030765638
147	0xbe483231	-0.19550397
148	0xbcd34a3f	-0.02579224
149	0x3d19b5ff	0.03752708
150	0x3acc97ea	0.0015609239
151	0xbe242110	-0.16028237
152	0xbcbcee6e	-0.02306291
153	0x3d098cb0	0.033581436
154	0x3e233862	0.15939477
155	0x3d04e272	0.032442518
156	0x3e0438fc	0.12912363
157	0xbe1a2508	-0.15053189
158	0x3d09122e	0.033464603
159	0x3ca622de	0.020280298
160	0xbd3f39ce	-0.046685986
161	0xbb16c0fc	-0.0023003211
162	0xbd9aa4d9	-0.075509734
163	0x3dc0cfc4	0.09414628
164	0x3cdfb123	0.027306145
165	0x3ce19444	0.027536519
166	0xbdc63e48	-0.09679848
167	0xbe06ef2a	-0.13177171
168	0x3d5bb412	0.053638525
169	0xbcc119aa	-0.023571808
170	0xbe11d24f	-0.14240383
171	0xbe1bb680	-0.15206337
172	0x3bc2c315	0.0059436657
173	0x3d8304fb	0.06397434
174	0x3d9d0bc6	0.07668261
175	0xbdd12a3d	-0.102131344
176	0x3ccf2181	0.02528453
177	0xbd39232c	-0.04519956
178	0x3e1f8ed4	0.15581828
179	0xbce67ff2	-0.028137181
180	0xbd7815a5	-0.060567517
181	0x3e0e9a1a	0.13925973
182	0x3d20aed5	0.039229233
183	0xbc72f3d2	-0.014828639
184	0xbe9a6c16	-0.30160588
185	0x3cda8f84	0.026679762
186	0xbc82301c	-0.015892081
187	0x3d3be12e	0.045869045
188	0xbe02aaf6	-0.12760529
189	0x3c756de1	0.01497981
190	0xbe0c727c	-0.13715547
191	0x3d718af7	0.058970418
192	0x3e74d155	0.23907979
193	0x3e8fee85	0.28111663
194	0xbd665cbd	-0.056240786
195	0x3d37cf83	0.044875633
196	0x3e7363be	0.23768517
197	0xbdeccab0	-0.11562097
198	0x3e20a4f4	0.15687925
199	0xbdb8aa3b	-0.09016844
200	0x3e099059	0.1343397
201	0xbe1b8b6d	-0.15189905
202	0x3e8d60db	0.27612957
203	0x3db446d1	0.0880257
204	0xbe38fd48	-0.18065369
205	0x3dbaf3b6	0.091285154
206	0x3db66c28	0.08907348
207	0xbddecdc9	-0.10879094
208	0x3d0f4a65	0.034983058
209	0x3d23e89f	0.040016767
210	0xbdd7b852	-0.10533203
211	0xbdfbf0f8	-0.123018205
212	0xbe029d3f	-0.12755297
213	0x3e581a94	0.21103889
214	0x3e0f1232	0.13971785
215	0xbdc88f8b	-0.09793004
216	0x3d08f0ac	0.033432648
217	0xbd813b28	-0.06310111
218	0x3daa7f3d	0.0832505
219	0x3cccbcbe	0.024992343
220	0x3e11cbd2	0.14237908
221	0xbdcc45bc	-0.09974238
222	0xbc2b2309	-0.010445365
223	0x3dcbb4c1	0.099465854
224	0x3d21e057	0.039520588
225	0xbe2a4d4e	-0.16631052
226	0xbdd30665	-0.10303954
227	0xbdf6b7d6	-0.12046783
228	0xbb5db410	-0.003382925
229	0xbdc8f661	-0.09812618
230	0x3daf6101	0.08563424
231	0xbdada1f9	-0.084781595
232	0x3e4dc118	0.2009319
233	0x3cb2f725	0.021846363
234	0x3a6a045e	0.00089270424
235	0xbf0e712f	-0.55641454
236	0xbd6f5ec1	-0.058439974
237	0xbe3db8fc	-0.18527597
238	0x3edb1654	0.42790473
239	0x3deda9dc	0.11604664
240	0xbe1eb494	-0.15498573
241	0xbc513b36	-0.012770465
242	0x3dfd3c16	0.12364976
243	0xbe1ccbd6	-0.15312132
244	0xbe6a4a35	-0.2287987
245	0x3e2609e3	0.16214709
246	0x3e956abb	0.2918299
247	0xbd978a98	-0.073994815
248	0x3e99017d	0.29883948
249	0x3e11a9aa	0.14224878
250	0xbd982d61	-0.0743053
251	0xbe6809b9	-0.22659959
252	0xbe1b8efe	-0.15191266
253	0x3e0f75f4	0.1400984
254	0xbe341f2f	-0.1759002
255	0xbe37623a	-0.17908564

lstm.weight_hh_l1 f4 [256, 64]
0	0x3dac764e	0.08421002
1	0xbde3506a	-0.11099322
2	0x3e1d78f0	0.15378165
3	0x3dbabdcc	0.09118232
4	0x3d96dddd	0.07366536
5	0xbd7e298b	-0.062051337
6	0x3db76fc5	0.08956865
7	0x3e01d5b0	0.12679172
8	0x3bcfd7d5	0.006342868
9	0xbd3ad0b4	-0.04560919
10	0xbe0ee20c	-0.13953418
11	0x3e1b4e2e	0.15166542
12	0xbdb8124a	-0.08987863
13	0xbd0703fd	-0.032962788
14	0x3d9ed90b	0.077562414
15	0xbe3e835e	-0.186048
16	0xbdac60a8	-0.08416873
17	0xbdc5beaf	-0.09655511
18	0xbd1a9b60	-0.037745833
19	0xbd93574f	-0.07194387
20	0xbd129092	-0.035782404
21	0xbd9fd33a	-0.0780396
22	0xbe0df6db	-0.13863699
23	0x3e0f4223	0.13990073
24	0x3d952f2c	0.07284388
25	0xbbafe9d3	-0.00536845
26	0x3dba3f9c	0.09094164
27	0x3e6de1dd	0.23230691
28	0xbd756d75	-0.05991884
29	0xbd295a69	-0.041345987
30	0xbe4a7cba	-0.19774142
31	0x3d9a7152	0.075411454
32	0x3e04cce5	0.12968786
33	0xbd5e506f	-0.054275926
34	0xbc5480fc	-0.012970205
35	0x3dccdf28	0.10003501
36	0xbe4bca54	-0.19901401
37	0xbc1b01df	-0.009460895
38	0x3de6fe58	0.11278981
39	0x3d189432	0.037250705
40	0xbdc233a8	-0.09482509
41	0xbe2a8f02	-0.16656116
42	0xbe24eb9c	-0.16105503
43	0x3dd85775	0.10563556
44	0xbdca51a3	-0.09878852
45	0x3d884dcf	0.06655466
46	0xbd250974	-0.04029222
47	0x3decd006	0.11563115
48	0x3daa4ffd	0.08316038
49	0x3cf0ee82	0.029410604
50	0x3d8c6e1b	0.068569385
51	0xbc440725	-0.011964594
52	0x3dc64e48	0.096829
53	0x3e6e3c27	0.23265134
54	0xbd283c13	-0.041072916
55	0x3cacd383	0.02109695
56	0xbd4c9482	-0.049946316
57	0xbd67e7de	-0.05661761
58	0x3d16e444	0.036838785
59	0xbdbc0e1b	-0.09182378
60	0x3db365a6	0.08759622
61	0xbd3f2352	-0.046664543
62	0x3da4c684	0.08045676
63	0xbd17e433	-0.037082862
64	0xbd8fd441	-0.07022906
65	0x3d657b5f	0.05602586
66	0x3d404faf	0.046950992
67	0x3e1072a0	0.14106226
68	0x3de1c5e1	0.110240705
69	0xbd62c8bb	-0.055367213
70	0x3dd53a97	0.10411566
71	0xbdda17f1	-0.10649098
72	0x3e112e67	0.14177857
73	0x3d8db568	0.06919366
74	0xbe270505	-0.16310509
75	0x3da7e968	0.081988156
76	0xbcd9f41b	-0.026605656
77	0x3d3cb19d	0.046067823
78	0xbdd6cb23	-0.10487964
79	0xbd70d70e	-0.058798842
80	0x3dad2ca0	0.08455777
81	0x3c87db8f	0.016584186
82	0xbe1ec3b5	-0.15504344
83	0xbcb06b57	-0.021535559
84	0xbcb71782	-0.022350077
85	0xbbfad2dc	-0.007654531
86	0x3d86ba9c	0.06578562
87	0x3dcbe937	0.099565916
88	0x3acaa0c0	0.0015459284
89	0x3c57babd	0.0131670805
90	0xbd8204cf	-0.063485734
91	0xbd24dbb7	-0.0402486
92	0xbdb1c7bd	-0.08680675
93	0xbdab9e6f	-0.08379828
94	0x3dfa585e	0.12223886
95	0xbd162621	-0.036657456
96	0x3e3691d0	0.1782906
97	0x3e01f6b1	0.12691762
98	0xbd2ecb47	-0.04267433
99	0x3dc1b3fa	0.09458156
100	0x3dad976b	0.08476146
101	0x3d06d749	0.032920156
102	0x3cb74f6e	0.022376742
103	0x3daa9154	0.083285004
104	0x3d9c97d1	0.07646144
105	0xbdfd1985	-0.12358383
106	0x3cff249d	0.031145388
107	0x3c97ea5c	0.018544368
108	0x3dab53e8	0.08365613
109	0x3baf5247	0.0053503844
110	0x3d8b3051	0.06796325
111	0xbd1bfcfc	-0.03808306
112	0xbd561f3e	-0.05227589
113	0xbd830a85	-0.06398491
114	0xbc9302f7	-0.01794575
115	0x3e0e348b	0.13887231
116	0xbd4022f2	-0.046908326
117	0xbc5ce4d1	-0.013482288
118	0x3d8da3f1	0.06916035
119	0x3dff102e	0.12454258
120	0xbd7ba84d	-0.0614398
121	0xbcc99341	-0.024606349
122	0x3dc462f9	0.0958919
123	0x3d546ee8	0.05186358
124	0x3def15d5	0.11674086
125	0xbd247383	-0.040149223
126	0x3d151eb1	0.036406223
127	0x3c831eb5	0.016005853
128	0xbdd0b3e9	-0.10190565
129	0x3c86ff35	0.016479114
130	0x3da15de8	0.07879239
131	0x3b384193	0.0028115257
132	0x3d1a0cf6	0.037610017
133	0xbdbf8611	-0.09351743
134	0x3d448abb	0.047983866
135	0x3db897ef	0.09013354
136	0xbdbb842a	-0.09156068
137	0xbe006863	-0.1253982
138	0x3b9c69a7	0.004773337
139	0xbda6e40b	-0.081489645
140	0x3d3fb52c	0.04680364
141	0xbd55eec2	-0.05222965
142	0x3de88ebb	0.11355349
143	0x3ec93e7b	0.3930548
144	0xbd8247e6	-0.0636137
145	0xbdb6754c	-0.08909091
146	0xbe7ceb67	-0.24699174
147	0xbdb344c9	-0.08753354
148	0xbd0264b8	-0.031834334
149	0x3deea1e9	0.11651976
150	0xbe02660c	-0.1273424
151	0x3d64a42f	0.05582064
152	0x3d4d5e24	0.050138608
153	0xbe126452	-0.14296082
154	0x3d7f9f2c	0.062407658
155	0x3c5ea326	0.013588702
156	0x3ce89cf2	0.02839515
157	0xbd8f873c	-0.07008216
158	0x3ec1d413	0.37857112
159	0xbd6ed979	-0.058312867
160	0x3a53b5cc	0.0008076101
161	0xbcb9d0c7	-0.02268256
162	0x3d6ce2c4	0.057833448
163	0x3c755a82	0.014975192
164	0x3c98ccd4	0.018652357
165	0xbd03744c	-0.03209333
166	0xbe0667ba	-0.13125506
167	0xbd596bac	-0.0530812
168	0xbd0655fd	-0.03279685
169	0x3d745498	0.059650987
170	0x3d3e06d5	0.046393234
171	0x3cbc669f	0.022998152
172	0xbe5230e0	-0.20526457
173	0xbe8fb85c	-0.28070343
174	0x3de93db6	0.113887236
175	0x3df917a9	0.12162716
176	0x3de04342	0.109503284
177	0xbd82ff5f	-0.063963644
178	0x3d3b7d1c	0.04577361
179	0x3d1c45ab	0.038152378
180	0xbc703cb6	-0.014662912
181	0xbe11af8a	-0.14227119
182	0xbccda335	-0.025102237
183	0xbcb9d9af	-0.022686807
184	0x3d594d81	0.05305243
185	0x3d45dcb4	0.048306182
186	0x3dac8ff7	0.084258966
187	0xbdcc7023	-0.09982326
188	0x3bc0fcfc	0.005889533
189	0x3d5480a7	0.051880505
190	0x3deef299	0.116673656
191	0x3dbf5719	0.093427844
192	0x3d06fa9c	0.032953843
193	0xbc47398c	-0.012159716
194	0x3e0046e1	0.12527038
195	0x3b9e9b33	0.0048402785
196	0x3c942726	0.018085074
197	0xbe060b19	-0.13090171
198	0x3da4019e	0.08008121
199	0xbd3cb58f	-0.046071585
200	0x3dd4840f	0.10376751
201	0xbe09fe5b	-0.13475935
202	0xbdc3891d	-0.09547637
203	0xbd892fb3	-0.06698551
204	0xbd67f2ed	-0.056628156
205	0xbd958361	-0.07300449
206	0xbc998e81	-0.018744709
207	0x3dfff1e2	0.12497307
208	0x3c99ef9f	0.018791018
209	0xbd2de64a	-0.04245595
210	0xbdbc34b4	-0.0918974
211	0x3d1ebac2	0.038752325
212	0xbdf95b1b	-0.1217558
213	0x3de7d2aa	0.11319478
214	0xbbd9aec1	-0.0066431467
215	0x3cf8e8ac	0.030384384
216	0x3dd2f234	0.10300103
217	0x3d8e29da	0.06941576
218	0xbdc71d58	-0.09722394
219	0x3dba05a8	0.0908311
220	0xbde03f0e	-0.10949527
221	0x3d8e836a	0.06958659
222	0x3d65abd9	0.05607209
223	0x3d9ff725	0.07810811
224	0x3e0b2616	0.13588747
225	0xbc4aae6d	-0.012370688
226	0x3d7bb828	0.061454922
227	0xbc566759	-0.013086163
228	0xbd6a44be	-0.057194464
229	0x3def8f22	0.11697222
230	0xbda5bce1	-0.080926664
231	0xbcad858a	-0.02118184
232	0x3c28eea3	0.010310802
233	0xbc825ae0	-0.015912473
234	0xbdaf1946	-0.085497424
235	0xbd54367d	-0.051809777
236	0xbeb05026	-0.34436148
237	0xbea1bb2e	-0.3158812
238	0x3d11214c	0.035432145
239	0x3e0b2ecf	0.13592075
240	0x3d609c72	0.054836698
241	0x3d8eaee1	0.06966949
242	0xbc90d5fc	-0.01768016
243	0x3c88eb54	0.016713776
244	0xbe1337aa	-0.14376703
245	0xbcf39f79	-0.029739128
246	0xbd89ef87	-0.06735139
247	0xbda3df88	-0.080016196
248	0xbd6a7cad	-0.057247806
249	0x3cedf62e	0.029048052
250	0x3db5af2d	0.08871303
251	0x3e0ee6df	0.13955258
252	0xbdabd3e1	-0.08390022
253	0x3ccfff7f	0.025390385
254	0x3d502baf	0.05082291
255	0x3e0236e5	0.12716253

lstm.bias_ih_l1 f4 [256]
0	0xbddf00e3	-0.10888841
1	0xbcb749fc	-0.022374146
2	0xbe233bc5	-0.15940769
3	0x3e948bec	0.29013002
4	0xbd543de1	-0.051816825
5	0xbe474121	-0.19458438
6	0x3e0767eb	0.13223235
7	0x3c91fbcb	0.01782026
8	0xbe1161de	-0.1419749
9	0x3bf03fc0	0.0073318183
10	0xbd87780f	-0.06614696
11	0xbde72072	-0.11285485
12	0xbdbe613e	-0.09295891
13	0xbd37f3f4	-0.044910386
14	0xbe5e6d60	-0.21721411
15	0x3f2d99b6	0.6781267
16	0xbe0a1c54	-0.13487369
17	0x3d2611e0	0.04054439
18	0x3e8a83ab	0.2705358
19	0xbe28d8b4	-0.16488916
20	0xbe17e268	-0.14832461
21	0xbe27a8a4	-0.16372925
22	0xbd621bd6	-0.055202328
23	0xbe8b7ebc	-0.27245128
24	0xbe027350	-0.127393
25	0x3d872d08	0.06600386
26	0xbd348ae9	-0.044077788
27	0x3ea8082f	0.32818744
28	0xbe03a4f3	-0.12855892
29	0xbe2e9a29	-0.17050995
30	0x3ad2b043	0.0016074259
31	0x3cb0c1f5	0.02157686
32	0x3f3321a1	0.6997319
33	0x3dd217bb	0.102584325
34	0xbe319963	-0.17343669
35	0xbe822c32	-0.25424343
36	0xbd2a85a8	-0.04163137
37	0xbd230bd0	-0.039806187
38	0x3d4054e7	0.04695597
39	0x3cdb7e43	0.026793605
40	0xbe67cbf2	-0.22636393
41	0x3d738773	0.059455346
42	0xb9d3015a	-0.00040246063
43	0xbe8ed136	-0.2789399
44	0x3e9a9b89	0.3019679
45	0x3e02f963	0.12790446
46	0xbd1189df	-0.035531875
47	0xbd129f13	-0.035796236
48	0xbd82cbe5	-0.06386546
49	0x3d50e930	0.051003635
50	0xbe4c1c00	-0.19932556
51	0x3d6f8230	0.058473766
52	0xbda285a8	-0.07935649
53	0x3e9eef23	0.31041822
54	0xbcf12e1a	-0.029440928
55	0xbe615194	-0.22003776
56	0xbda552c6	-0.080724284
57	0x3d964102	0.07336618
58	0xbdc649e7	-0.096820645
59	0xbe449545	-0.19197567
60	0xbde18e03	-0.11013415
61	0xbd99b3f2	-0.07505025
62	0xbdcc6f36	-0.09982149
63	0x3dbcaa3a	0.09212156
64	0xbcb0a143	-0.02156127
65	0xbd92f63a	-0.0717587
66	0xbbd449e4	-0.006478535
67	0x3c287143	0.01028091
68	0x3b40c4bd	0.002941414
69	0xbe52ef2c	-0.2059905
70	0xbded862a	-0.115978554
71	0xbe78071d	-0.24221464
72	0x3d0dba4a	0.034601487
73	0xbdec580d	-0.11540232
74	0xbe0dfb28	-0.1386534
75	0xbce7f366	-0.028314304
76	0xbe309e50	-0.17247891
77	0x3c7e3153	0.0155146895
78	0xbe522361	-0.20521308
79	0xbefc5fdc	-0.49291885
80	0xbca20c39	-0.019781219
81	0xbde96628	-0.11396438
82	0xbe0e00db	-0.13867514
83	0xbdc1b309	-0.09457976
84	0xbe1712f7	-0.14753328
85	0xbe13e221	-0.1444173
86	0xbcb0ab8d	-0.021566177
87	0xbe85e8f4	-0.26154292
88	0xbe637447	-0.22212325
89	0xbe55e12b	-0.20886676
90	0xbe096f8b	-0.13421457
91	0x3d552cea	0.052044787
92	0x3c5c91a4	0.013462458
93	0xbe077a39	-0.13230218
94	0xbdc66967	-0.09688073
95	0xbdfe778e	-0.12425147
96	0x3d4a34ce	0.049366765
97	0xbb4f986e	-0.0031676549
98	0xbe50e6e1	-0.20400573
99	0xbc356a3d	-0.011072692
100	0xbd8ddd87	-0.069270186
101	0x3ce815e2	0.028330747
102	0xbd93ffad	-0.07226501
103	0xbe0055c5	-0.12532718
104	0xbe8846b7	-0.2661645
105	0xbe2f59bf	-0.17124079
106	0xbe5dc06d	-0.21655436
107	0xbe4ccf44	-0.2000094
108	0xbd8fba71	-0.07017983
109	0xbdb91108	-0.090364516
110	0xbdd45fe3	-0.103698514
111	0xbe1d2792	-0.15347126
112	0xbd3ea7d9	-0.04654679
113	0x3cf82804	0.030292518
114	0xbd5d087e	-0.053963177
115	0xbdb8b280	-0.09018421
116	0x3c808bbf	0.015691636
117	0xbdf3f0e1	-0.119111784
118	0xbde9fd40	-0.11425257
119	0xbdf48b88	-0.11940676
120	0x3d356a49	0.044290815
121	0xbe312079	-0.17297544
122	0x3cf1b84d	0.029506827
123	0xbdaa8174	-0.083254725
124	0x3c7ede2d	0.0155559005
125	0x3ca45cf5	0.020063857
126	0xbdcbc7dc	-0.099502295
127	0xbc93f121	-0.018059315
128	0x3c975633	0.01847372
129	0x3da83c42	0.08214618
130	0xbbbc7feb	-0.0057525537
131	0xbc7372be	-0.0148589
132	0xbd574fd5	-0.052566368
133	0x3de6b7db	0.112655364
134	0x3c91db8e	0.017804887
135	0x3d45de3a	0.048307635
136	0xbdad0f81	-0.08450223
137	0x3db50e4f	0.0884062
138	0x3cf10b2b	0.02942427
139	0xbda30b49	-0.07961137
140	0x3d8b5de7	0.0680502
141	0x3dccae12	0.09994139
142	0xbd4ff8bf	-0.050774332
143	0x3d60c1a1	0.05487216
144	0xbd530ddb	-0.051526885
145	0xbdc13a02	-0.09434892
146	0xbd3b2508	-0.045689613
147	0x3db96aab	0.090535484
148	0x3d9be98e	0.076129064
149	0x3ce10214	0.027466811
150	0x3dad918e	0.08475028
151	0xbcd33e5b	-0.02578657
152	0xbd16b1e2	-0.036790736
153	0xbda04060	-0.078247786
154	0x3b029a3f	0.0019928364
155	0xbe0edd70	-0.13951659
156	0xbd302ebb	-0.043013316
157	0xbcc7df66	-0.024398517
158	0x3e0cbb49	0.13743319
159	0xbafd3cf7	-0.0019320537
160	0x3cde8d05	0.027166853
161	0xbbe3515a	-0.006937188
162	0xbd3b1624	-0.04567541
163	0x3df867b6	0.12129156
164	0x3d8035b3	0.06260242
165	0xbd7e7cdc	-0.062130794
166	0xbd48b607	-0.04900172
167	0x3d40bc97	0.047054853
168	0x3c81b4b9	0.015833246
169	0x3dae3ab7	0.08507293
170	0xbd581208	-0.05275157
171	0xbd562083	-0.0522771
172	0x3cd9596b	0.026531896
173	0xbd903152	-0.07040657
174	0xbd912e38	-0.07088894
175	0x3d4fbb2a	0.050715603
176	0xbd18116a	-0.037125982
177	0xbdac7877	-0.08421414
178	0xbd614de2	-0.055005915
179	0xbdc4e8de	-0.096147284
180	0x3d67f2a0	0.05662787
181	0x3d9c6b3e	0.07637642
182	0xbd3beda8	-0.045880944
183	0x3d51322d	0.051073242
184	0xbc958c6b	-0.018255433
185	0x3d0eead4	0.03489192
186	0x3cbb05a4	0.022829838
187	0x3d52d28b	0.05147032
188	0x3d6a1ad1	0.05715448
189	0x3dfe5a3c	0.124195546
190	0xbc022979	-0.007944458
191	0x3d6db49c	0.05803357
192	0xbe1d8b72	-0.15385225
193	0xbe0f2dfc	-0.13982385
194	0xbdc891b6	-0.09793417
195	0x3e01f412	0.12690762
196	0xbdbf78a5	-0.09349183
197	0xbd5015b1	-0.050801937
198	0x3d52651d	0.05136596
199	0xbd01beff	-0.03167629
200	0x3cb25ee6	0.021773767
201	0xbdd1156b	-0.10209163
202	0xbdd443db	-0.10364505
203	0xbda99d23	-0.082819246
204	0xbe9f9b03	-0.31172952
205	0x3ba025ce	0.004887319
206	0xbe7dae6b	-0.24773566
207	0x3f43a00b	0.7641608
208	0xbddb41f1	-0.10705937
209	0x3d7c41dc	0.061586246
210	0x3e88a938	0.26691604
211	0xbe0ae14b	-0.13562505
212	0xbdcd853f	-0.1003518
213	0xbdfad9c2	-0.12248565
214	0x3d8bacf4	0.068200976
215	0xbe916f19	-0.28405073
216	0xbda75ae1	-0.08171631
217	0xbe24bfde	-0.16088817
218	0xbdf935ba	-0.12168451
219	0x3e74bcf1	0.239002
220	0xbd9860e0	-0.074403524
221	0xbe48b939	-0.19601907
222	0x3bc76ff0	0.006086342
223	0xbdc9eb79	-0.09859366
224	0x3ec051fe	0.37562555
225	0x3d7a9a0e	0.061182074
226	0xbda770de	-0.081758246
227	0xbe3967fa	-0.1810607
228	0xbd9531be	-0.07284878
229	0xbd3499e7	-0.044092085
230	0xbe37d39a	-0.17951813
231	0xbca80d72	-0.020514224
232	0xbda1e5db	-0.079051696
233	0x3d30b9ee	0.043146066
234	0xbb85ad36	-0.0040794862
235	0xbe402a76	-0.18766198
236	0x3ecf0de0	0.40440273
237	0x3db16e07	0.08663564
238	0xbe21afb4	-0.15789682
239	0x3ccc2e2a	0.024924356
240	0xbe2603fe	-0.1621246
241	0x3c631d3d	0.013861951
242	0xbe5bcfbb	-0.21465962
243	0xbd0a308b	-0.0337377
244	0xbd9e0c3b	-0.077171765
245	0x3e8147ab	0.2524999
246	0xbd89e2cc	-0.06732711
247	0xbdbcdd2c	-0.09221873
248	0xbdeb3a6f	-0.11485755
249	0xbd5dbed1	-0.054137055
250	0xbd970591	-0.073741086
251	0xbd86b80f	-0.06578075
252	0xbbb1fef8	-0.005432006
253	0x3ddcbf43	0.10778668
254	0xbc1ab9df	-0.009443729
255	0xbdfa79af	-0.122302406
