stock_prediction_model.pth (torch, 205962 bytes, 9 tensors)

lstm.weight_ih_l0 f4 [256, 1]
0.060300145 0.17509711 -0.053259104 -0.07651583 -0.009910744 0.19213958 0.1315014 0.055557884
0.08432457 0.21530282 0.008119418 0.0037623344 0.10500754 0.107820116 -0.11894446 -0.0015843417
0.0916791 0.14245088 0.1450993 0.15227523 0.12409061 0.111476116 -0.037761718 0.12534152
0.002581705 -0.090940505 0.18749957 0.16232374 0.14050323 -0.0143664535 0.18339252 -0.03570777
0.069555335 0.04970726 -0.035899464 0.13323888 -0.19430152 0.24657294 0.22373809 0.185532
0.07825177 0.06813942 0.18939428 0.17890894 -0.040084176 -0.021759685 -0.08795869 0.0115671605
0.16573219 -0.050134968 -0.0094722705 -0.016432267 0.35345584 -0.02469319 0.065782145 0.07972771
-0.06370014 0.41806945 0.18998711 0.07918359 0.3578576 0.024651388 -0.22782163 -0.12624605
0.13010588 0.0025280803 -0.013159582 -0.087314285 -0.054802403 0.042165786 -0.11954012 -0.07829458
0.017107181 0.1244108 0.12839064 -0.012622043 0.040152416 0.08424198 -0.21526015 0.09764047
0.03314551 0.09740825 0.117645554 0.053302363 -0.07050681 0.06491969 0.091285765 0.06507367
0.15918995 0.08422545 -0.040083133 0.11116533 0.11659109 0.023080569 0.11209032 0.006711879
-0.046251357 -0.14056073 -0.0052104057 -0.029967695 -0.123293065 0.058183055 0.09906341 0.039554477
-0.10435104 -0.06683897 0.042393986 0.090181805 -0.096662186 0.11605604 0.06043484 -0.057366192
0.025434427 0.015521774 -0.05520027 0.0408208 0.15026404 -0.09637253 0.03511777 0.093542516
-0.12317355 -0.049141333 -0.015598861 -0.00091503747 -0.12652501 -0.027166527 -0.07497778 0.02987602
-0.18029557 0.23385222 0.032924045 0.15810752 -0.18768555 0.21028194 0.21582973 0.10483266
0.21547103 -0.07390701 -0.1812441 -0.0805141 -0.19650747 0.22259986 0.34623325 0.11767317
-0.17483883 -0.12427423 0.18099982 0.028705223 -0.07808286 -0.14156826 -0.13721877 0.24096899
-0.2013128 0.20587298 -0.24213445 0.19430298 -0.044758826 -0.20440826 0.23064704 -0.23331177
0.009328195 0.370389 -0.16805398 -0.22289185 0.18673867 0.2202671 0.15391925 0.03674556
0.06465372 0.19872011 -0.2600665 0.11770046 0.35080418 0.01879784 0.16623883 0.09672288
0.051050436 0.14378193 0.12115812 0.21540208 -0.18067056 0.02954792 0.010317284 0.12367234
0.20042436 0.12914477 0.13342477 0.16564927 -0.28116462 0.20075257 -0.21028717 -0.0410551
-0.013145788 -0.041949317 0.039848294 -0.24075805 -0.034424283 0.02552886 0.0972805 -0.057677083
0.028336173 0.16934663 0.061988693 0.12293275 -0.0012444749 0.043074604 -0.2902697 0.05554389
-0.0075793345 -0.04580584 0.15789527 -0.018782511 -0.050090738 0.20601788 0.10281573 0.1569964
-0.013763613 -0.11783228 0.18293335 0.15679383 0.11976809 -0.028564634 0.19066624 -0.009869895
-0.010690582 0.06286574 -0.146285 0.18636729 -0.06792899 0.22336456 0.13970591 0.013537952
-0.051951587 0.19517818 0.28708863 -0.029836114 0.018950768 -0.039120387 0.080011636 0.10645555
-0.032965254 0.106056035 -0.017125797 0.2170747 0.35393083 0.008097741 0.11994389 0.013571884
-0.010119825 0.21307713 -0.059747957 0.080268726 0.18198216 0.048726533 -0.26824212 -0.058723647
00000000: 49fd 763d a84c 333e 3826 5abd 55b4 9cbd
00000010: ac60 22bc 3dc0 443e 4ea8 063e aa90 633d
00000020: 5cb2 ac3d 5878 5c3e 4f07 053c 7f91 763b
00000030: 310e d73d cbd0 dc3d 2799 f3bd b0a9 cfba
00000040: 41c2 bb3d a5de 113e e994 143e 0aee 1b3e
00000050: 3823 fe3d 974d e43d 08ac 1abd 8759 003e
00000060: d331 293b 043f babd e3ff 3f3e 3238 263e
00000070: 14e0 0f3e 4661 6bbc 40cb 3b3e 5042 12bd
00000080: 0773 8e3d d799 4b3d 510b 13bd c66f 083e
00000090: faf6 46be 9e7d 7c3e 991b 653e 1afc 3d3e
000000a0: 7742 a03d ae8c 8b3d 93f0 413e e833 373e
000000b0: 4e2f 24bd 5e41 b2bc b023 b4bd 3084 3d3c
000000c0: b3b5 293e 535a 4dbd 9531 1bbc f69c 86bc
000000d0: 2af8 b43e 5f49 cabc cab8 863d 4848 a33d
000000e0: 3875 82bd 330d d63e fb8b 423e 022b a23d
000000f0: 1d39 b73e b5f1 c93c 134a 69be a546 01be
00000100: 7a3a 053e 26ae 253b 4a9b 57bc d5d1 b2bd
00000110: 7c78 60bd 08b6 2c3d 73d1 f4bd e958 a0bd
00000120: 5c24 8c3c 17cb fe3d d678 033e afcc 4ebc
00000130: dc76 243d 0f87 ac3d 286d 5cbe baf7 c73d
00000140: 96c3 073d fa7d c73d 27f0 f03d 9453 5a3d
00000150: e065 90bd 9df4 843d 08f4 ba3d 5845 853d
00000160: b102 233e 657e ac3d 362e 24bd a6aa e33d
00000170: 4fc7 ee3d 7613 bd3c 9c8f e53d 52ef db3b
00000180: 1072 3dbd 27ef 0fbe 0dbc aabb d07e f5bc
00000190: 1381 fcbd 5b51 6e3d c2e1 ca3d e003 223d
000001a0: 00b6 d5bd dfe2 88bd 51a5 2d3d 3db1 b83d
000001b0: d3f6 c5bd caae ed3d 868a 773d d0f8 6abd
000001c0: dc5b d03c 0a4f 7e3c ae19 62bd b633 273d
000001d0: d1de 193e f65e c5bd a7d7 0f3d 3893 bf3d
000001e0: 6a42 fcbd 6c48 49bd 5d92 7fbc 20df 6fba
000001f0: c68f 01be 568c debc f38d 99bd 8ebe f43c
00000200: 679f 38be f576 6f3e 5ddb 063d f0e6 213e
00000210: a430 40be 2654 573e 7802 5d3e 81b2 d63d
00000220: 70a4 5c3e 8f5c 97bd 0e98 39be 94e4 a4bd
00000230: 4139 49be 38f1 633e 7c45 b13e a2fe f03d
00000240: f308 33be 7d83 febd 0458 393e 3727 eb3c
00000250: e8e9 9fbd 45f7 10be 1483 0cbe 93c0 763e
00000260: f124 4ebe 5ed0 523e 18f2 77be 5cf7 463e
00000270: 0855 37bd 6650 51be bd2e 6c3e 48e9 6ebe
00000280: 49d5 183c a1a3 bd3e 5816 2cbe c33d 64be
00000290: 6c38 3f3e b38d 613e 029d 1d3e 8382 163d
000002a0: 2b69 843d 497d 4b3e 7027 85be f00c f13d
000002b0: 9b9c b33e eefd 993c 833a 2a3e a516 c63d
000002c0: 431a 513d 923b 133e c021 f83d 5d92 5c3e
000002d0: b401 39be 7b0e f23c d309 293c ec47 fd3d
000002e0: 0b3c 4d3e 873e 043e 81a0 083e f69f 293e
000002f0: cff4 8fbe 1592 4d3e 8555 57be 6429 28bd
00000300: 6e61 57bc 0cd3 2bbd f737 233d 4789 76be
00000310: 7a00 0dbd e621 d13c 003b c73d ce3e 6cbd
00000320: 4321 e83c 3469 2d3e dbe7 7d3d 2ac4 fb3d
00000330: a61d a3ba ff6e 303d 3b9e 94be fd81 633d
00000340: 115c f8bb e89e 3bbd 4caf 213e c8dd 99bc
00000350: f22b 4dbd 5af6 523e 0e91 d23d aac3 203e
00000360: c780 61bc 0d52 f1bd e152 3b3e 908e 203e
00000370: f948 f53d 6100 eabc 033e 433e 57b5 21bc
00000380: 8d27 2fbc c1bf 803d bccb 15be 11d7 3e3e
00000390: 5b1e 8bbd aeb9 643e 110f 0f3e 49ce 5d3c
000003a0: 30cb 54bd cadc 473e 48fd 923e de6a f4bc
000003b0: a43e 9b3c b33c 20bd 24dd a33d 5e05 da3d
000003c0: 9306 07bd e833 d93d 664b 8cbc d548 5e3e
000003d0: 6c36 b53e 63ac 043c 24a5 f53d 9b5c 5e3c
000003e0: 9fcd 25bc e430 5a3e 46ba 74bd ee63 a43d
000003f0: 8859 3a3e 7995 473d 0857 89be 3588 70bd

lstm.weight_hh_l0 f4 [256, 64]
0.0020134826 0.14026316 0.09285196 -0.027992165 0.022573978 0.018979892 0.08576028 0.076569565
0.13105555 -0.064626575 -0.09915413 -0.081817225 0.012181384 -0.07309065 -0.09967735 -0.1145741
-0.10661749 0.041518763 0.0449281 -0.065153636 0.057786744 0.04818935 0.030604502 0.06410529
-0.05198101 0.036396377 -0.085266806 -0.011936967 -0.12943801 -0.029905844 0.060457237 -0.12896019
0.05191649 0.03805059 0.025383275 -0.11888683 0.115024954 0.05329706 0.108891085 0.11789343
0.024163527 0.024434576 -0.05205064 4.7913352e-05 0.14682615 -0.021921847 0.037599124 0.028220419
-0.045094218 -0.021098264 -0.010087531 -0.062874645 -0.008326434 0.08917978 0.10905885 0.04320657
0.08748275 -0.09280409 0.061607193 0.056553192 -0.08807365 0.031897712 0.036150422 0.0049910834
-0.081590645 0.015794283 -0.06743792 -0.040966514 0.03954157 0.020937813 0.14066078 0.03630244
-0.08907114 -0.12079816 -0.010399717 0.07795849 -0.014768633 0.024074525 -0.15136535 -0.03891007
-0.043392487 -0.033884376 0.11581868 0.12549546 -0.100809745 0.04225172 -0.023917852 0.022721458
0.053554073 0.060080905 -0.1021834 0.09962986 0.1049205 0.0808653 -0.038996745 0.03738179
0.021882461 -0.12226647 0.09878631 0.10201853 -0.019817967 -0.016106658 0.12727404 -0.0033476744
0.13052861 -0.06564001 -0.08703659 0.072459616 -0.049800802 -0.0378455 -0.101156496 -0.051130533
0.08757079 -0.0659436 -0.041207556 0.048709318 0.04936609 0.087723225 -0.10487974 -0.013439742
0.077025056 0.11359989 0.0017910819 -0.09831828 -0.015888864 0.022714868 0.075343266 -0.16458042
0.04794355 -0.098937914 -0.019717164 0.04182852 -0.07985604 0.12355585 -0.0834919 0.031086616
-0.04815877 -0.00900358 -0.04550457 -0.091059856 0.015208087 0.066547215 0.041294046 0.09490082
-0.0043334262 0.023559181 -0.062386226 0.10040934 0.005545764 -0.049430452 0.034874182 0.028144846
0.03668012 0.06617765 -0.042659305 0.08307503 0.035783246 0.024266558 -0.0915793 0.11139225
0.02011542 0.066004105 -0.093859054 0.043354366 0.124350555 0.16616245 0.09586997 0.13987535
0.016364316 -0.032882594 -0.04679308 0.11421115 0.13005662 -0.060206864 0.04872447 -0.07760165
-0.12375265 0.05200181 -0.00918776 0.10272532 0.14327002 -0.0021168385 -0.07592383 0.056191
0.016045788 -0.08170915 0.11270235 0.124532185 -0.015197348 0.143299 0.037597917 0.0046759746
0.18278593 -0.17895602 0.06837019 0.00892116 0.16715978 -0.007398707 -0.005310177 -0.15045582
-0.11739316 0.049149353 -0.002714274 -0.0368165 0.1544809 -0.17771485 0.060917553 -0.09338512
0.012444907 0.064226545 -0.020567147 0.047731206 -0.11200206 0.09471994 0.17694815 -0.15883806
-0.005407835 -0.03690948 0.15131426 -0.15316992 0.0018392509 0.166542 -0.18176083 -0.031414054
0.08296858 -0.00028793642 0.004617165 0.049961798 -0.017498564 -0.028601829 -0.17012148 -0.006464267
0.0021882758 -0.09581532 -0.024153765 -0.11536533 0.016578477 -0.054405186 -0.1386559 0.0049789394
-0.0125857275 -0.054562166 -0.17651422 -0.014338191 -0.015213927 -0.034753393 0.04891805 0.07874102
-0.12084398 -0.14062037 0.036125127 -0.022857131 0.073493004 -0.046238046 0.14950857 -0.14661041
00000000: a2f4 033b 25a1 0f3e 2b29 be3d d34f e5bc
00000010: 10ed b83c b87b 9b3c 16a3 af3d 81d0 9c3d
00000020: 6d33 063e f05a 84bd 5211 cbbd ca8f a7bd
00000030: 6d94 473c 8db0 95bd a323 ccbd d3a5 eabd
00000040: 455a dabd 940f 2a3d 8706 383d 456f 85bd
00000050: cbb1 6c3d 3262 453d 4bb6 fa3c a249 833d
00000060: 0aea 54bd 5e14 153d 5da0 aebd 4593 43bc
00000070: 668b 04be 1afd f4bc 02a2 773d 240e 04be
00000080: 63a6 543d efda 1b3d 96f0 cf3c f07a f3bd
00000090: 3492 eb3d 054e 5a3d 4a02 df3d 1c72 f13d
000000a0: 97f2 c53c 052b c83c 0d33 55bd 92f6 4838
000000b0: 9859 163e 7295 b3bc 8a01 1a3d 822e e73c
000000c0: b7b4 38bd 44d6 acbc 2c46 25bc 6cc4 80bd
000000d0: 986b 08bc e3a3 b63d 3f5a df3d 5ff9 303d
000000e0: 282a b33d 1210 bebd d357 7c3d 52a4 673d
000000f0: f55f b4bd 2da7 023d 7712 143d 3e8c a33b
00000100: ff18 a7bd 0363 813c e41c 8abd 81cc 27bd
00000110: 57f6 213d c785 ab3c 6109 103e deb1 143d
00000120: ee6a b6bd 0765 f7bd 9363 2abc b3a8 9f3d
00000130: 23f8 71bc f037 c53c 85ff 1abe 2a60 1fbd
00000140: 52bc 31bd 58ca 0abd 5832 ed3d e281 003e
00000150: 5775 cebd 2410 2d3d 5fef c3bc 5a22 ba3c
00000160: 845b 5b3d 6517 763d 8845 d1bd bd0a cc3d
00000170: 8fe0 d63d b59c a53d 0dbb 1fbd a61d 193d
00000180: d942 b33c d866 fabd 7a50 ca3d 17ef d03d
00000190: 4a59 a2bc 1cf2 83bc 2054 023e a864 5bbb
000001a0: 4ba9 053e 456e 86bd 3d40 b2bd b565 943d
000001b0: edfb 4bbd e203 1bbd 232b cfbd 406e 51bd
000001c0: 5058 b33d 700d 87bd 41c9 28bd 6c83 473d
000001d0: 1934 4a3d 3ca8 b33d 30cb d6bd 5d32 5cbc
000001e0: 50bf 9d3d 0fa7 e83d bcc2 ea3a 185b c9bd
000001f0: 5d29 82bc 8814 ba3c 924d 9a3d c587 28be
00000200: 7560 443d f69f cabd e485 a1bc 6254 2b3d
00000210: 908b a3bd d90a fd3d cdfd aabd 5ca9 fe3c
00000220: 2142 45bd c083 13bc 0063 3abd 977d babd
00000230: 572b 793c e849 883d f223 293d 5c5b c23d
00000240: 6aff 8dbb 2fff c03c b388 7fbd 69a3 cd3d
00000250: 3eb9 b53b 9677 4abd 3bd8 0e3d 0590 e63c
00000260: e53d 163d 2688 873d 86bb 2ebd 3e23 aa3d
00000270: 7491 123d a9ca c63c ee8d bbbd 9f21 e43d
00000280: 18c9 a43c 292d 873d 2d39 c0bd 5994 313d
00000290: 81ab fe3d 7d26 2a3e 7a57 c43d 7c3b 0f3e
000002a0: 750e 863c e6af 06bd 1aaa 3fbd 89e7 e93d
000002b0: 902d 053e 799b 76bd 4f93 473d 9ded 9ebd
000002c0: 0872 fdbd daff 543d 4288 16bc a761 d23d
000002d0: 60b5 123e a8ba 0abb f47d 9bbd 8928 663d
000002e0: 7572 833c 2057 a7bd 7dd0 e63d bb0a ff3d
000002f0: 4cfe 78bc f9bc 123e 4600 1a3d eb38 993b
00000300: 3c2c 3b3e 3f40 37be ac05 8c3d 0f2a 123c
00000310: ef2b 2b3e da70 f2bb fe00 aebb 1711 1abe
00000320: d36b f0bd d550 493d f6e1 31bb e6cc 16bd
00000330: 3e30 1e3e e2fa 35be af84 793d b340 bfbd
00000340: b9e5 4b3c 3589 833d 6f7c a8bc cc81 433d
00000350: 5661 e5bd 87fc c13d e531 353e 72a6 22be
00000360: 3534 b1bb 652e 17bd 20f2 1a3e 93d8 1cbe
00000370: 0513 f13a fc89 2a3e 831f 3abe 06ac 00bd
00000380: 6eeb a93d 2cf6 96b9 964b 973b bea4 4c3d
00000390: 2659 8fbc 624e eabc 5334 2ebe 34d2 d3bb
000003a0: 2d69 0f3b d33a c4bd 1ede c5bc a844 ecbd
000003b0: 96cf 873c f9d7 5ebd d0fb 0dbe 5f26 a33b
000003c0: 5e34 4ebc 947c 5fbd 25c0 34be bbea 6abc
000003d0: d643 79bc 9359 0ebd 4b5e 483d f942 a13d
000003e0: 0c7d f7bd c9fe 0fbe f1f7 133d e13e bbbc
000003f0: 8083 963d 1b64 3dbd c618 193e 0a21 16be

lstm.bias_ih_l0 f4 [256]
0.092584215 0.12044637 -0.07180041 0.1263424 0.06448853 0.14500125 0.20944415 0.035675976
0.18173854 -0.049205653 0.14292647 -0.0136369495 0.03551034 0.064044476 0.5747115 -0.031609792
-0.013580726 0.18195006 -0.016354771 0.0066885226 0.06261671 0.083198056 0.13513586 -0.008936931
0.1889075 -0.054047007 0.029537521 0.29824623 -0.10410916 0.013663795 0.12308411 0.18281505
0.0014796527 0.5378612 0.03468931 0.085750274 0.005411568 0.29069024 -0.001994553 -0.006155512
-0.09224044 -0.027897533 0.21045655 0.1069794 0.30874005 0.048860982 0.018808337 0.020525027
-0.07443726 0.10397032 0.1236796 0.26370212 0.108642004 -0.08062493 0.10814479 0.047242776
0.17805716 0.053835325 -0.023734864 0.18505085 0.20615776 0.09218038 0.00052431383 0.014375503
0.09315381 -0.019050483 -0.14335015 -0.07628329 0.06112378 0.033817094 -0.08340917 -0.04788237
-0.04871519 -0.117164455 0.075965464 -0.0496518 -0.0387516 -0.10250511 -0.1142053 -0.09411373
-0.080297425 -0.015432228 0.05761656 -0.02315733 -0.15726069 -0.121941544 -0.10594838 -0.027977139
-0.017529836 -0.049886588 -0.07771765 0.037141852 -0.121977925 -0.033692945 0.11585382 -0.06931738
0.0785882 0.010329994 -0.11525127 -0.058422025 -0.06521814 -0.05586338 -0.005993309 0.022057336
-0.014452486 0.0072295633 -0.10539839 0.078176536 -0.17187518 0.100855775 -0.042845048 -0.009885721
-0.12010007 -0.06523631 0.09423217 -0.061239038 -0.118863314 -0.017167352 -0.028583933 -0.05447669
0.0794311 -0.03562138 0.102749094 0.041225195 -0.15569687 0.07001816 0.07964569 0.005116086
-0.06835399 -0.13783546 0.04199259 -0.102569506 -0.07647564 0.044620175 0.07494415 0.030160163
-0.007121491 -0.03113118 -0.06618406 0.13672134 -0.03622327 0.06379455 -0.017262654 0.020327969
-0.053289343 -0.08968909 0.16157933 -0.006672926 0.13343999 -0.055461153 0.046092454 0.0045519634
0.0372057 -0.0664549 0.09094274 -0.031975355 0.032317076 0.03906822 -0.02744836 0.10062039
0.053353038 0.013467907 0.04578127 -0.05093214 -0.08971606 0.061614472 0.06745465 -0.10439534
0.050384644 0.058688544 -0.002368183 0.03729619 -0.09143121 -0.08704834 -0.07455678 0.09991898
0.03514345 -0.077005066 0.032208122 0.03056818 -0.058186963 -0.046162672 -0.08811065 -0.0033642743
-0.10034555 0.03346142 0.08769178 0.08695405 -0.068096384 -0.06384473 0.07545124 0.03918917
0.019635161 -0.02147653 -0.04010764 0.24862115 0.10015049 -0.016216412 0.17937192 0.11274018
0.08407831 0.13240846 -0.013431283 0.04295058 0.028286206 -0.041777864 0.37796092 -0.05232997
0.11854814 -0.027805751 0.17396747 0.01695935 -0.08696732 0.11166412 0.006526265 -0.03615432
-0.02144584 -0.019351117 0.1976078 0.26309553 0.118248574 -0.01382181 0.16395731 -0.03161308
-0.10444236 0.42241645 0.087844655 0.15948409 0.1133335 0.08259112 0.20134059 -0.1126474
0.12483377 -0.004598085 0.07697841 0.058382664 0.28694355 0.07985195 -0.05909445 -0.095033206
-0.1164824 0.18206713 -0.09562145 0.16392367 0.25104907 -0.022249047 0.092769235 -0.046049204
-0.0048031434 0.2644903 0.026928965 -0.015465857 0.40987515 0.23108461 0.11113243 -0.004579727
00000000: cb9c bd3d 96ac f63d 180c 93bd e75f 013e
00000010: 9012 843d 357b 143e 8778 563e f920 123d
00000020: ab19 3a3e de8b 49bd 515b 123e 836d 5fbc
00000030: 4a73 113d c029 833d 4b20 133f 4579 01bd
00000040: b281 5ebc 1e51 3a3e 71fa 85bc 652b db3b
00000050: 313d 803d be63 aa3d 0e61 0a3e 356c 12bc
00000060: f870 413e 6560 5dbd acf8 f13c bbb3 983e
00000070: 2f37 d5bd 1cde 5f3c 8613 fc3d de33 3b3e
00000080: e8f0 c13a 46b1 093f 6116 0e3d d79d af3d
00000090: 8653 b13b 5ad5 943e 0cb7 02bb 2db4 c9bb
000000a0: 8ee8 bcbd 5e89 e4bc ec81 573e 0418 db3d
000000b0: 2d13 9e3e 7422 483d f113 9a3c 1a24 a83c
000000c0: 9072 98bd 64ee d43d bb4b fd3d f703 873e
000000d0: b37f de3d af1e a5bd 047b dd3d a481 413d
000000e0: 9e54 363e 6e82 5c3d 9e6f c2bc f87d 3d3e
000000f0: 051b 533e 11c9 bc3d 1b72 093a 3b87 6b3c
00000100: 6dc7 be3d c20f 9cbc 62ca 12be 6a3a 9cbd
00000110: ee5c 7a3d cb83 0a3d 6dd2 aabd 4e20 44bd
00000120: 9489 47bd ebf3 efbd c893 9b3d b05f 4bbd
00000130: ffb9 1ebd 33ee d1bd 78e4 e9bd b3be c0bd
00000140: fa72 a4bd 75d7 7cbc 58ff 6b3d 71b4 bdbc
00000150: f208 21be 7dbc f9bd 77fb d8bd 5030 e5bc
00000160: bb9a 8fbc e155 4cbd 6e2a 9fbd 0e22 183d
00000170: 90cf f9bd 9d01 0abd c544 ed3d 45f6 8dbd
00000180: daf2 a03d 233f 293c dc08 ecbd ef4b 6fbd
00000190: 1791 85bd 00d1 64bd 8563 c4bb 96b1 b43c
000001a0: 1fca 6cbc f9e5 ec3b 1cdb d7bd 051b a03d
000001b0: 0c00 30be 798d ce3d 4a7e 2fbd b8f7 21bc
000001c0: 07f7 f5bd 9d9a 85bd ccfc c03d c9d5 7abd
000001d0: 9c6e f3bd 8ca2 8cbc da28 eabc f322 5fbd
000001e0: c6ac a23d b9e7 11bd 1e6e d23d c0db 283d
000001f0: 006f 1fbe ae65 8f3d 481d a33d d7a4 a73b
00000200: 2dfd 8bbd bd24 0dbe 6c00 2c3d f60f d2bd
00000210: 439f 9cbd a5c3 363d 527c 993d 7212 f73c
00000220: 655b e9bb d106 ffbc 828b 87bd ae00 0c3e
00000230: da5e 14bd b8a6 823d 696a 8dbc d786 a63c
00000240: ed45 5abd eaae b7bd 0d75 253e 8fa8 dabb
00000250: 7ea4 083e 3c2b 63bd 71cb 3c3d a328 953b
00000260: 0165 183d 8219 88bd 3040 ba3d 97f8 02bd
00000270: e95e 043d ff05 203d 62db e0bc 1012 ce3d
00000280: b788 5a3d 7fa8 5c3c 2485 3b3d 389e 50bd
00000290: 0ebd b7bd 755f 7c3d aa25 8a3d 39cd d5bd
000002a0: 2160 4e3d 6663 703d 8533 1bbb e4c3 183d
000002b0: 4940 bbbd 6646 b2bd 3ab1 98bd 52a2 cc3d
000002c0: 94f2 0f3d d5b4 9dbd aaec 033d 1f6a fa3c
000002d0: 7455 6ebd 1215 3dbd 5b73 b4bd 287b 5cbb
000002e0: f881 cdbd d80e 093d bf97 b33d f714 b23d
000002f0: 1e76 8bbd 07c1 82bd 2e86 9a3d d384 203d
00000300: ebd9 a03c 8cef afbc e947 24bd 8b96 7e3e
00000310: b31b cd3d 48d8 84bc 46ad 373e 53e4 e63d
00000320: 4031 ac3d 1596 073e e20e 5cbc f3ec 2f3d
00000330: 79b8 e73c 441f 2bbd 1884 c13e f357 56bd
00000340: 5ec9 f23d e3c8 e3bc 8724 323e 56ee 8a3c
00000350: ec1b b2bd 28b0 e43d 47da d53b 8d16 14bd
00000360: 30af afbc 3c86 9ebc b359 4a3e 75b4 863e
00000370: 4f2c f23d df74 62bc 6de4 273e b87c 01bd
00000380: e0e5 d5bd f846 d83e e6e7 b33d cc4f 233e
00000390: 651b e83d 8825 a93d 3a2c 4e3e aeb3 e6bd
000003a0: d9a8 ff3d 88ab 96bb dba6 9d3d a922 6f3d
000003b0: 44ea 923e 6b89 a33d 060d 72bd c5a0 c2bd
000003c0: 538e eebd ce6f 3a3e 2ed5 c3bd 9bdb 273e
000003d0: 8189 803e a243 b6bc ccfd bd3d 179e 3cbd
000003e0: b063 9dbb 466b 873e 229a dc3c 8264 7dbc
000003f0: 28db d13e 72a1 6c3e 6699 e33d 8911 96bb

lstm.bias_hh_l0 f4 [256]
0.013077649 0.14205939 -0.111910865 0.09504485 0.13468122 0.07452247 0.25094613 -0.03676309
0.06316038 0.09917909 0.09804687 0.109049685 0.053326264 0.021883968 0.57107776 0.11398916
-0.011032088 0.113129176 0.036698118 0.12638675 -0.021923546 0.15888749 -0.0017513819 0.15954892
0.16455957 0.11983421 0.14710808 0.24023698 -0.039816264 0.1274374 0.015609368 0.091842815
-0.06743424 0.4519058 0.05263267 0.06326354 -0.041775342 0.22407576 0.19776446 0.1038514
0.12011946 0.08085709 0.25063038 -0.011277895 0.44419363 -0.03961873 0.061888356 -0.07881734
0.017543793 0.06516287 -0.09363809 0.1782296 0.19779801 0.07461377 0.078849 0.005251359
0.1755963 0.17218977 -0.11826416 0.07320692 0.39846367 0.11713482 0.12862466 -0.092410885
0.086453564 0.011726021 -0.14324683 -0.19890562 -0.010022807 0.110337794 -0.13740966 -0.10435686
0.09918892 -0.09662119 0.08458705 -0.1327513 0.061721746 0.081971206 -0.17665415 -0.108458914
-0.0694278 0.073432975 0.069858395 -0.01171319 -0.15867527 0.065051295 0.016224017 0.0008971735
0.098929584 -0.104323916 0.121716924 0.05838453 -0.06351318 -0.061664212 0.10994021 0.035280876
-0.00065633707 -0.041136105 -0.13750994 -0.09824285 -0.08169166 -0.06625806 -0.06865613 0.03628326
0.06314229 -0.04577124 -0.08871564 -0.093043126 -0.14479338 -0.11460885 0.09639424 -0.11831644
0.077888556 -0.14863017 0.09063351 -0.102017134 -0.04804493 -0.10612063 0.023597294 0.04835395
0.10588497 -0.07248886 -0.0042535057 -0.0679356 -0.096701555 0.06129518 -0.12082754 -0.1520609
0.01733672 0.108777806 -0.09514868 0.019416925 0.11600209 0.029449388 -0.0024830021 -0.035947494
-0.08251144 -0.11532942 -0.031681456 0.07424462 -0.011289067 -0.09187698 -0.09765884 0.07890146
-0.072055615 0.10201402 0.10024828 0.09398031 0.018887777 -0.09770162 -0.015590312 0.0088408645
-0.024400521 -0.12569977 -0.108773306 0.07470454 -0.09954163 0.04213364 0.061889805 -0.10919547
0.08325279 -0.07912524 -0.003946998 -0.015108273 -0.07247321 -0.041118104 -0.002143773 -0.11138909
-0.039839756 0.039664738 -0.045834694 0.042802885 0.020012945 0.024595084 0.057515226 0.029208729
0.021417087 0.06519561 0.046735704 -0.025026577 -0.11925205 0.069813706 -0.00030531408 0.08646859
0.0062446985 0.10450741 0.10404862 -0.06776734 0.05406886 -0.004204879 0.032868747 -0.10547086
-0.0018622042 0.15463896 -0.062460314 0.22550137 0.06355267 0.14551024 0.08544929 0.12842593
0.22882213 0.13014816 0.16022009 0.10038247 0.083328664 0.06029336 0.38678664 0.063374296
0.018417608 0.04235879 -0.03107309 -0.03248812 -0.0814089 0.12085465 -0.034775224 0.12322155
0.002241791 0.09533177 0.18166597 0.16606058 -0.039421607 0.030120162 0.0520957 0.06403484
-0.099975735 0.4167781 0.12431573 0.11705574 0.08897453 0.24771981 0.21202801 0.00766256
0.03592992 -0.097769804 0.28167832 -0.017428864 0.4214393 0.01291893 0.012781711 -0.05619653
0.09670008 0.10179192 0.015240967 0.19749998 0.097682126 0.018782701 0.03318085 -0.052076478
-0.032563124 0.12476062 0.104130425 0.07797897 0.3178053 0.15407905 0.15204306 -0.08921803
00000000: a343 563c 0478 113e 8631 e5bd e0a6 c23d
00000010: e0e9 093e 3d9f 983d 037c 803e e594 16bd
00000020: 3b5a 813d 681e cb3d cccc c83d 7155 df3d
00000030: a46c 5a3d 0246 b33c 2732 123f 2673 e93d
00000040: eebf 34bc 45b0 e73d c450 163d 876b 013e
00000050: 0299 b3bc 67b3 223e a08e e5ba cb60 233e
00000060: 4e82 283e a36b f53d 80a3 163e af00 763e
00000070: 6116 23bd f37e 023e 6fbe 7f3c 1618 bc3d
00000080: f61a 8abd 3260 e73e 5b95 573d 5190 813d
00000090: 9f1c 2bbd 1e74 653e c482 4a3e 0bb0 d43d
000000a0: 3101 f63d 6798 a53d a052 803e ecc6 38bc
000000b0: 596d e33e 4047 22bd a57e 7d3d fc6a a1bd
000000c0: 00b8 8f3c 1c74 853d 54c5 bfbd d281 363e
000000d0: 908b 4a3e 1bcf 983d 967b a13d 9813 ac3b
000000e0: 84cf 333e 8452 303e 7b34 f2bd 82ed 953d
000000f0: 6e03 cc3e 61e4 ef3d 2fb6 033e eb41 bdbd
00000100: 910e b13d 7f1e 403c 4caf 12be eaad 4bbe
00000110: b336 24bc c8f8 e13d 1eb5 0cbe 0db9 d5bd
00000120: 8f23 cb3d 55e1 c5bd fa3b ad3d f5ef 07be
00000130: f1cf 7c3d 85e0 a73d d3e4 34be b51f debd
00000140: 2a30 8ebd 0764 963d eb11 8f3d aee8 3fbc
00000150: c57b 22be 9d39 853d 3be8 843c 4b30 6b3a
00000160: 989b ca3d c7a7 d5bd b946 f93d 9e24 6f3d
00000170: 3313 82bd 9d93 7cbd 5528 e13d ae82 103d
00000180: 090e 2cba 557e 28bd 68cf 0cbe 8c33 c9bd
00000190: f54d a7bd 4eb2 87bd 969b 8cbd c19d 143d
000001a0: bf50 813d a07a 3bbd 8cb0 b5bd 658d bebd
000001b0: b744 14be 0bb8 eabd 586a c53d e44f f2bd
000001c0: 0984 9f3d 8232 18be 109e b93d 5cee d0bd
000001d0: c3ca 44bd c655 d9bd 1d4f c13c cb0e 463d
000001e0: 38da d83d 0a75 94bd fe60 8bbb d221 8bbd
000001f0: 770b c6bd a810 7b3d 6e74 f7bd dab5 1bbe
00000200: bd05 8e3c e6c6 de3d 50dd c2bd 3e10 9f3c
00000210: 8192 ed3d d83f f13c ddb9 22bb ae3d 13bd
00000220: c2fb a8bd d531 ecbd 6ac4 01bd 900d 983d
00000230: c7f5 38bc 002a bcbd 5c01 c8bd 1797 a13d
00000240: e591 93bd baec d03d f84e cd3d c078 c03d
00000250: 8aba 9a3c c917 c8bd 826e 7fbc 46d9 103c
00000260: 9ae3 c7bc 71b7 00be 8ac4 debd b2fe 983d
00000270: 7bdc cbbd 5394 2c3d 2a80 7d3d e0a1 dfbd
00000280: 7080 aa3d 6a0c a2bd d255 81bb b188 77bc
00000290: d66c 94bd 756b 28bd 8b7e 0cbb f71f e4bd
000002a0: 032f 23bd 7e77 223d 29bd 3bbd 1452 2f3d
000002b0: 30f2 a33c a17b c93c 1695 6b3d 2547 ef3c
000002c0: e372 af3c 4785 853d f06d 3f3d 8904 cdbc
000002d0: 6b3a f4bd 7dfa 8e3d 9012 a0b9 7216 b13d
000002e0: 54a0 cc3b fb07 d63d 7117 d53d 9ac9 8abd
000002f0: 4f77 5d3d 15c9 89bb 61a1 063d 1b01 d8bd
00000300: 3415 f4ba ad59 1e3e 63d6 7fbd d5e9 663e
00000310: e727 823d a300 153e 0a00 af3d 1682 033e
00000320: 5950 6a3e 8f45 053e bc10 243e 5395 cd3d
00000330: 38a8 aa3d 2cf6 763d e608 c63e 62ca 813d
00000340: 86e0 963c 6980 2d3d fe8c febc 4312 05bd
00000350: b6b9 a6bd a582 f73d 7770 0ebd 945b fc3d
00000360: 03eb 123b 4e3d c33d a506 3a3e c90b 2a3e
00000370: 8d78 21bd 8fbe f63c 4d62 553d b324 833d
00000380: 14c0 ccbd f063 d53e 3f99 fe3d ebba ef3d
00000390: 4738 b63d 43aa 7d3e df1d 593e 3616 fb3b
000003a0: 402b 133d 893b c8bd 2438 903e fac6 8ebc
000003b0: e4c6 d73e eba9 533c 626a 513c 552e 66bd
000003c0: b10a c63d 4878 d03d 40b5 793c 6f3d 4a3e
000003d0: 910d c83d 2ede 993c a5e8 073d 254e 55bd
000003e0: e960 05bd 7f82 ff3d 5542 d53d 70b3 9f3d
000003f0: 60b7 a23e e6c6 1d3e 2db1 1b3e f1b7 b6bd

lstm.weight_ih_l1 f4 [256, 64]
-0.04087469 0.1398523 -0.009122313 0.01984947 0.045736767 -0.020061696 -0.027889 -0.035271924
0.11801693 0.036703 -0.06687926 -0.0443567 -0.105554976 0.004591816 0.026436629 0.08104374
-0.027880365 0.03299007 0.008123331 -0.11345051 -0.031100562 -0.09699945 0.04924239 -0.06344233
-0.14571866 0.0045928396 -0.12982303 0.10185816 -0.05799357 -0.032785702 0.17426048 0.009620407
0.1320769 0.046259273 -0.057376344 -0.13070464 0.016331095 0.018480863 0.16356078 -0.06703161
0.10079707 0.10004863 -0.16845328 -0.06260631 -0.013354031 0.009752103 0.022047602 0.06957049
0.0054971534 0.16067164 0.0059213373 0.03649604 0.052146748 0.023572039 0.02651011 0.113998376
0.111966126 0.15977521 -0.048732664 -0.0057796645 0.039834756 -0.04233558 0.033047017 -0.115492135
-0.10544735 0.21437497 0.019158034 -0.049157396 -0.05533631 0.14579195 0.23431635 0.29489493
0.119231656 0.007159521 -0.089606024 0.07200138 -0.15516178 0.08770371 -0.015327177 -0.015702313
-0.064753726 -0.07744475 0.12027157 0.15305638 0.09471683 -0.26724017 -0.14928576 0.10318341
-0.066474155 0.00744117 -0.19648193 0.3101465 -0.045146137 0.0008396889 0.163464 -0.2307006
0.11596982 0.20168412 -0.069816165 -0.039357796 -0.009087062 0.31079456 0.31235608 -0.025897365
-0.019034853 0.1399387 -0.3270116 0.031184534 0.3199088 0.048387744 0.25049356 0.043913763
0.18131597 0.14800923 0.049822688 0.3487794 -0.21018064 0.07725576 -0.057844423 0.20942755
0.027654402 0.28124928 0.13471994 0.22532879 -0.5793006 0.21082307 0.0036555396 -0.18029714
-0.13675822 0.05891985 0.057098564 0.023400795 -0.017495893 0.121984646 -0.054622296 0.1430965
0.09157257 0.039964486 -0.018707408 0.06266658 -0.086239934 0.13583875 -0.03210675 0.08492237
-0.07978544 -0.1365162 -0.08883973 0.025361994 -0.028158769 -0.026591701 -0.08591646 -0.020134527
-0.009394124 -0.0047909385 -0.09638964 0.08898886 0.046861365 0.007296119 0.15104984 -0.034938175
0.05974273 0.02311432 -0.06844756 -0.17042638 -0.032874715 0.03570265 0.15230891 0.06667591
-0.07159625 -0.061366674 -0.07015299 -0.06863264 0.029462976 0.050709553 -0.009827502 0.11238762
0.08638694 0.120718166 -0.026736982 0.11860443 -0.08916014 -0.010693166 -0.02125581 0.13325351
0.099882096 0.08346521 0.1339329 0.021106001 -0.03225962 0.16705336 -0.14266136 -0.026351955
-0.065321736 0.08025014 -0.11856054 -0.12415449 -0.112247415 0.13720353 0.0057929717 0.071690485
0.08131439 -0.13283844 -0.023755759 -0.00174159 -0.06956609 0.088795096 -0.067078486 0.1372196
0.043190014 -0.120759286 -0.005942644 0.108585306 0.045170236 -0.120379835 -0.013386158 0.0810995
0.049163748 0.11451715 -0.00041836454 0.15032256 -0.031323254 -0.15634753 0.11102345 -0.08034288
-0.0704121 0.1247004 -0.08879523 -0.08874715 0.04454034 0.22073536 0.18856834 -0.12697025
-0.026811946 0.16445147 0.004295133 -0.049732268 0.1660411 0.031964656 0.095773794 0.01345861
0.014180447 0.11539889 -0.064874314 -0.01851126 0.002690704 0.14620143 -0.030611373 0.14078903
0.0018380303 0.1414655 0.116741545 0.053930413 -0.073682405 -0.04661086 0.015078147 0.009331277
00000000: 386c 27bd 7135 0f3e c175 15bc 5b9b a23c
00000010: 7a56 3b3d 6d58 a4bc 7977 e4bc 4b79 10bd
00000020: dcb2 f13d e355 163d fef7 88bd 5faf 35bd
00000030: 352d d8bd f276 963b a191 d83c 43fa a53d
00000040: 5d65 e4bc 9820 073d b817 053c be58 e8bd
00000050: 9bc6 febc a6a7 c6bd 63b2 493d 0dee 81bd
00000060: 4637 15be 887f 963b 54f0 04be 039b d03d
00000070: aa8a 6dbd 4d4a 06bd 5771 323e e99e 1d3c
00000080: 2b3f 073e 5d7a 3d3d 7503 6bbd 70d7 05be
00000090: cac8 853c 2e65 973c 7a7c 273e de47 89bd
000000a0: b26e ce3d 4ce6 cc3d 047f 2cbe bd37 80bd
000000b0: deca 5abc 49c7 1f3c 2c9d b43c f97a 8e3d
000000c0: 7721 b43b 1b87 243e c707 c23b df7c 153d
000000d0: d497 553d 261a c13c bb2b d93c fb77 e93d
000000e0: 7f4e e53d 1d9c 233e e79b 47bd 5763 bdbb
000000f0: c529 233d 1368 2dbd 4f5c 073d 2487 ecbd
00000100: c8f4 d7bd 1d85 5b3e 4ff1 9c3c 4459 49bd
00000110: 54a8 62bd 7c4a 153e a0f0 6f3e 78fc 963e
00000120: ba2f f43d 6a9a ea3b 5d83 b7bd 7675 933d
00000130: bbe2 1ebe 019e b33d d71e 7bbc 23a2 80bc
00000140: 9a9d 84bd 5a9b 9ebd f150 f63d d0ba 1c3e
00000150: e6fa c13d b4d3 88be 5ede 18be d351 d33d
00000160: 9a23 88bd 0fd5 f33b 8f32 49be 86cb 9e3e
00000170: 28eb 38bd 911e 5c3a 1b63 273e c73c 6cbe
00000180: 9681 ed3d 4886 4e3e c7fb 8ebd a435 21bd
00000190: e7e1 14bc 7720 9f3e 23ed 9f3e b626 d4bc
000001a0: fbee 9bbc 174c 0f3e 106e a7be b576 ff3c
000001b0: 16cb a33e 3a32 463d b140 803e ebde 333d
000001c0: e5aa 393e bb8f 173e e012 4c3d 3793 b23e
000001d0: 9839 57be 4538 9e3d 46ee 6cbd 2d74 563e
000001e0: 7c8b e23c e8ff 8f3e 06f4 093e 97bc 663e
000001f0: 0b4d 14bf 01e2 573e c791 6f3b d09f 38be
00000200: 590a 0cbe f155 713d 2fe0 693d 06b3 bf3c
00000210: 8c53 8fbc 16d3 f93d a1bb 5fbd e487 123e
00000220: 668a bb3d cdb1 233d 4740 99bc 5657 803d
00000230: 909e b0bd 5019 0b3e 5e82 03bd c8eb ad3d
00000240: 8c66 a3bd e7ca 0bbe 9bf1 b5bd f5c3 cf3c
00000250: 38ad e6bc d7d6 d9bc f8f4 afbd 2af1 a4bc
00000260: d0e9 19bc 4efd 9cbb ee67 c5bd cb3f b63d
00000270: b4f1 3f3d 4814 ef3b cfac 1a3e 551b 0fbd
00000280: cbb4 743d 3e5a bd3c 3c2e 8cbd 4184 2ebe
00000290: a3a7 06bd f13c 123d def6 1b3e 618d 883d
000002a0: 0ea1 92bd 9f5b 7bbd 5fac 8fbd 458f 8cbd
000002b0: 575c f13c d2b4 4f3d 8803 21bc 7b2b e63d
000002c0: a3eb b03d 163b f73d 8407 dbbc e1e6 f23d
000002d0: 9799 b6bd 6432 2fbc aa20 aebc 9c73 083e
000002e0: fc8e cc3d cfef aa3d b525 093e 7ee6 ac3c
000002f0: aa22 04bd 0910 2b3e d215 12be 0ee0 d7bc
00000300: 67c7 85bd 2f5a a43d decf f2bd b644 febd
00000310: f9e1 e5bd 157f 0c3e f8d2 bd3b 76d2 923d
00000320: 2988 a63d cd06 08be 709b c2bc 1046 e4ba
00000330: ab78 8ebd 34da b53d 7260 89bd 4b83 0c3e
00000340: 03e8 303d a550 f7bd 83ba c2bb f961 de3d
00000350: 6d04 393d b489 f6bd 9e51 5bbc 7f17 a63d
00000360: ed5f 493d f887 ea3d f057 dbb9 28ee 193e
00000370: d04c 00bd 9119 20be 4360 e33d cf8a a4bd
00000380: 3834 90bd ec62 ff3d 46da b5bd 11c1 b5bd
00000390: ee6f 363d 7308 623e 0f18 413e 7d04 02be
000003a0: baa4 dbbc f765 283e 30be 8c3b 10b4 4bbd
000003b0: ae06 2a3e 5fed 023d 0d25 c43d 8081 5c3c
000003c0: 1b55 683c 4156 ec3d d3dc 84bd eda4 97bc
000003d0: 8656 303b d4b5 153e b4c4 fabc 002b 103e
000003e0: 10ea f03a 55dc 103e 3116 ef3d 23e6 5c3d
000003f0: cde6 96bd 07eb 3ebd 550a 773c 36e2 183c

lstm.weight_hh_l1 f4 [256, 64]
-0.043103475 -0.04935836 0.10439822 0.0139408065 0.04916686 -0.09260689 -0.07880187 0.046593796
0.12717997 0.07829838 0.07372446 0.07232412 0.001828432 0.0714351 -0.028922606 -0.09738464
0.06334006 0.055396978 0.07111579 0.100532085 -0.094209835 -0.05388128 0.08461161 -0.07006778
-0.063522 0.10067258 0.04013996 0.031892415 -0.07598338 0.0063943807 -0.050731543 -0.07523409
-0.022277892 -0.13555863 0.0049570766 -0.06855021 -0.013954949 0.027991353 0.06324156 0.05396436
-0.08090668 -0.087724015 0.1614902 0.06099944 0.013430781 0.082098186 0.017075589 0.0031118677
-0.11221479 0.008460261 0.08282144 0.10016145 -0.046632804 -0.060733173 -0.11622274 -0.00411717
-0.028688813 0.07617796 0.15553929 -0.08414483 -0.06290303 0.15200515 -0.07466683 -0.044629976
-0.008702626 -0.031116728 -0.01989832 -0.019722058 0.11549914 0.031016856 0.109306045 0.019633748
-0.009570312 0.076918766 -0.015945217 0.0500952 0.020013817 -0.12321541 0.11642556 0.14168145
-0.016351424 -0.065710686 -0.013236054 -0.07435456 -0.037007503 -0.13928322 -0.0430302 0.0017514316
-0.066365585 0.07182084 0.104840584 -0.047292583 -0.17915773 -0.11307546 -0.060871646 0.023177417
-0.07014401 -0.09336014 -0.18592459 0.014663397 -0.0595489 -0.032415304 0.19216076 0.10777648
0.10502961 0.009037113 0.08387663 -0.100234844 -0.027296895 0.040952716 0.0022882174 -0.14172918
-0.16535628 0.09509971 -0.01720324 0.0037461028 -0.2260137 0.104789294 -0.062578425 0.021718044
0.10415193 0.07122314 0.008857508 -0.014899589 -0.08324419 0.090917505 -0.006484872 0.011824071
-0.080931716 0.026545137 -0.07330129 -0.086641796 0.033639614 -0.053269386 0.11521278 0.075467005
0.072867915 -0.032469217 0.1010461 0.033790473 0.07779792 -0.035096988 0.06020558 0.118749164
-0.067987524 0.00010368337 0.01595035 0.011886376 -0.0054107807 -0.10911467 -0.08698609 0.038326267
0.08762836 0.0055821436 -0.12847392 -0.0866236 -0.05323631 0.029153403 0.080659345 0.005870278
-0.012817185 0.024427684 -0.055942304 -0.002092078 -0.034688786 -0.098850116 -0.07117913 0.0021027732
-0.12668374 -0.06739477 -0.039121155 0.0732452 0.08242248 -0.06463288 0.0235082 -0.031220697
0.035580445 -0.0372827 -0.018713133 0.06426904 -0.14660746 -0.036766157 -0.014721708 -0.11506086
-0.09594016 -0.0074412073 0.14255577 -0.016211363 -0.11573371 -0.08204089 -0.054425146 -0.09683379
-0.10132959 0.116302215 -0.05047521 0.10635693 -0.028115757 -0.07899978 0.024426304 0.0008103341
0.13769351 -0.09596072 0.07829635 0.1146916 0.03326057 0.04178042 -0.0069420733 0.07456704
-0.031244393 0.093711816 -0.03594635 0.02255138 0.017086115 -0.12731217 -0.119177476 -0.059394903
0.03743886 0.12226658 0.05817122 0.03144843 -0.060151856 -0.089287736 -0.025525264 0.0028762093
0.034599062 -0.1007344 0.049530927 0.035672832 -0.029476399 -0.11421561 -0.08938768 -0.023545938
-0.078119755 -0.032066714 -0.073056124 0.09581831 -0.005537441 -0.058216948 -0.059064396 -0.093489155
0.08146449 -0.022488069 0.041626424 -0.008021908 -0.13579193 -0.04282421 0.12271059 -0.030371845
0.014159832 -0.110202804 0.10332448 0.052351017 -0.07631767 -0.014103046 -0.027413268 -0.10161019
00000000: 458d 30bd fe2b 4abd bcce d53d fb67 643c
00000010: 3063 493d aea8 bdbd e062 a1bd 23d9 3e3d
00000020: 773b 023e e75a a03d dafc 963d ab1e 943d
00000030: ffa7 ef3a 914c 923d 1aef ecbc 9971 c7bd
00000040: 6fb8 813d f1e7 623d 28a5 913d c4e3 cd3d
00000050: 16f1 c0bd 9eb2 5cbd da48 ad3d b27f 8fbd
00000060: d317 82bd 6d2d ce3d cc69 243d 9fa1 023d
00000070: 2d9d 9bbd f487 d13b e1cb 4fbd 5514 9abd
00000080: 2080 b6bc e2cf 0abe f96e a23b 0d64 8cbd
00000090: 4ca3 64bc 1f4e e53c ca84 813d bc09 5d3d
000000a0: 67b2 a5bd a6a8 b3bd b05d 253e 8cda 793d
000000b0: c70c 5c3c 1823 a83d 1be2 8b3c 7af0 4b3b
000000c0: ded0 e5bd e89c 0a3c 4a9e a93d 7221 cd3d
000000d0: 0a02 3fbd 59c3 78bd 3006 eebd 53e9 86bb
000000e0: cd04 ebbc 3103 9c3d b145 1f3e 2054 acbd
000000f0: 4ed3 80bd 3da7 1b3e ecea 98bd eccd 36bd
00000100: 7695 0ebc 82e8 febc cd01 a3bc 2790 a1bc
00000110: d08a ec3d 1017 fe3c d9db df3d f4d6 a03c
00000120: cccc 1cbc 9687 9d3d 8b9f 82bc a030 4d3d
00000130: 04f4 a33c 5c58 fcbd 8670 ee3d f114 113e
00000140: 6cf3 85bc 5393 86bd 09dc 58bc 3447 98bd
00000150: 2e95 17bd 43a0 0ebe 6f40 30bd 4b90 e53a
00000160: aeea 87bd ce16 933d a9b6 d63d deb5 41bd
00000170: 2075 37be 1b94 e7bd 8c54 79bd 91de bd3c
00000180: aaa7 8fbd 9a33 bfbd 0463 3ebe bf3e 703c
00000190: 8ce9 73bd e9c5 04bd cac5 443e eab9 dc3d
000001a0: c419 d73d 6610 143c 83c7 ab3d ed47 cdbd
000001b0: bd9d dfbc 09be 273d ebf5 153b 7421 11be
000001c0: 2853 29be a3c3 c23d cfed 8cbc 2d81 753b
000001d0: 2370 67be c59b d63d 1e29 80bd 0aea b13c
000001e0: 9b4d d53d 70dd 913d 151f 113c 681d 74bc
000001f0: ee7b aabd f532 ba3d 0d7f d4bb c0b9 413c
00000200: 87bf a5bd 3075 d93c fd1e 96bd 4171 b1bd
00000210: b1c9 093d 0031 5abd aef4 eb3d 728e 9a3d
00000220: c63b 953d 71fe 04bd 42f1 ce3d e167 0a3d
00000230: 8454 9f3d dcc1 0fbd 209a 763d c332 f33d
00000240: 0b3d 8bbd 9670 d938 4faa 823c 13bf 423c
00000250: eb4c b1bb 8377 dfbd c325 b2bd 01fc 1c3d
00000260: 7f76 b33d 6aea b63b ab8e 03be b767 b1bd
00000270: 510e 5abd 1ed3 ee3c ba30 a53d 765b c03b
00000280: 2cff 51bc 911c c83c c223 65bd 3f1b 09bb
00000290: d415 0ebd ee71 cabd 5dc6 91bd aece 093b
000002a0: 62b9 01be 4506 8abd 813d 20bd 9401 963d
000002b0: 1ecd a83d 3e5e 84bd 4594 c03c 8cc2 ffbc
000002c0: cdbc 113d bfb5 18bd 494c 99bc 7d9f 833d
000002d0: 4420 16be 1c98 16bd 5233 71bc 07a5 ebbd
000002e0: 467c c4bd 5fd5 f3bb 24fa 113e b1cd 84bc
000002f0: cc05 edbd 0e05 a8bd e7ec 5ebd cb50 c6bd
00000300: e385 cfbd db2f ee3d 18bf 4ebd aad1 d93d
00000310: 0453 e6bc a3ca a1bd ac19 c83c 9a6c 543a
00000320: 87ff 0c3e 0e87 c4bd d659 a03d 6ee3 ea3d
00000330: 3c3c 083d f221 2b3d 557a e3bb 9bb6 983d
00000340: 3ef4 ffbc fbeb bf3d 7b3c 13bd acbd b83c
00000350: 2ef8 8b3c 1f5e 02be 5213 f4bd 1248 73bd
00000360: 7d59 193d e766 fa3d f244 6e3d 12d0 003d
00000370: cb61 76bd 7ddc b6bd 5c1a d1bc c97e 3c3b
00000380: bfb7 0d3d d64d cebd f1e0 4a3d ad1d 123d
00000390: 7d78 f1bc e0e9 e9bd e310 b7bd 69e3 c0bc
000003a0: 40fd 9fbd 6358 03bd 739e 95bd 643c c43d
000003b0: 6c73 b5bb e574 6ebd 82ed 71bd 3e77 bfbd
000003c0: dbd6 a63d e638 b8bc 7880 2a3d 526e 03bc
000003d0: 0a0d 0bbe 7068 2fbd b14f fb3d 60ce f8bc
000003e0: a4fe 673c 02b2 e1bd c99b d33d 056e 563d
000003f0: 704c 9cbd 7610 67bc ca91 e0bc 0119 d0bd

lstm.bias_ih_l1 f4 [256]
0.038882904 0.111779824 0.0613629 0.17381065 -0.030586451 0.13439846 0.12441838 0.068844244
0.0019192604 -0.0858097 -0.062812254 0.046336003 0.08953676 0.4154971 -0.10043643 -0.071334064
-0.021751564 0.1253741 0.13144362 0.00448408 -0.07425118 -0.004906689 0.16369411 0.06183599
0.17757781 0.056653026 0.094690196 0.107957065 0.35780278 0.26070455 0.12675592 0.09570595
-0.09868596 -0.010176925 -0.011442047 0.07936208 0.040344078 0.17070238 -0.043046616 0.07718169
0.12056447 0.03698221 0.08611061 0.064603835 0.10834715 0.045328878 -0.025547037 0.10317378
0.10009577 0.16675717 -0.05403787 0.09182484 0.09402307 0.0056452714 -0.091514066 0.6065854
0.13241437 0.029479211 -0.040678672 0.15994309 -0.03942648 0.10923815 0.22074674 -0.028408673
0.09851853 0.031234978 -0.04912584 -0.11013065 -0.11053055 -0.032586824 -0.030358229 -0.11507798
-0.04292673 -0.039154656 -0.02062396 -0.11242252 0.05724086 -0.01723965 -0.007059321 -0.055401936
-0.0829203 -0.08997436 -0.13433695 0.07525558 -0.03708643 0.04334912 0.08732269 0.01143127
0.061482035 0.08006851 -0.05160333 0.03325484 -0.08360514 -0.054859992 -0.09026286 -0.12733743
-0.122490406 -0.05329685 0.05208785 -0.122440115 0.053516258 0.05700057 0.086623356 -0.07104184
-0.13607644 -0.07905015 -0.113894984 0.06427965 -0.02613702 0.033865664 -0.06165269 0.032743696
-0.025477631 -0.06075694 0.012656183 -0.1190119 -0.10563344 -0.11027222 -0.06977779 -0.2253369
-0.04439281 0.05203744 -0.14930317 -0.06808106 -0.103371084 -0.03474848 -0.010171658 0.09685837
0.06316721 -0.04206014 0.12016373 0.0215108 0.07092712 -0.016745672 -0.021213397 0.072108835
0.08164354 -0.051914643 0.050471675 -0.06756314 -0.13616976 0.061699975 0.023321653 0.06958618
0.10919026 0.003939946 0.09155772 0.038916733 -0.046845607 0.0768335 0.034331933 0.017522234
-0.01740318 0.027638832 -0.0078518335 -0.02919194 -0.004560755 0.08088187 0.13959792 -0.12905905
0.046229947 0.004414456 -0.11958256 -0.0046688924 -0.040065516 0.047378574 0.06905085 -0.0127289565
0.076642886 -0.052582636 0.041246295 0.009406111 -0.095151454 0.004242025 0.1065071 -0.08484402
-0.03340655 -0.006581367 -0.02564018 -0.09513694 -0.09123184 0.0785417 -0.11094952 -0.14904009
0.061162606 -0.045326795 0.022553032 0.055808336 -0.11625322 0.04220327 -0.07745742 -0.0538924
0.105623975 0.11212316 -0.03312038 0.10598115 0.09140184 -0.08126139 0.33279482 -0.08784922
0.07995673 0.0825563 0.0139131695 -0.041952595 0.036851697 0.32436684 -0.037448883 0.048659597
-0.08517471 -0.00563948 0.17841795 0.01956721 0.011832185 0.008947349 0.026748735 0.06007755
0.07639954 0.098525845 0.051482275 0.1011706 0.34908015 0.2482994 -0.026239613 -0.024717912
-0.0575141 -0.05576422 0.09780904 0.09923309 -0.04437759 0.17123835 0.08515507 0.0035396253
0.015413835 0.12514207 0.1531178 0.054945957 0.120019875 -0.00096179015 0.11562243 0.10075308
-0.050670046 0.046651125 0.052342996 0.04893595 -0.06587218 0.10235738 0.13784875 0.72187686
-0.08457285 0.053254332 0.043996487 0.06747768 0.101668105 0.09433862 0.15865377 0.14506987
00000000: ae43 1f3d d2ec e43d aa57 7b3d 6bfb 313e
00000010: 7090 fabc c09f 093e 10cf fe3d 36fe 8c3d
00000020: b18f fb3a ffbc afbd b6a3 80bd d2ca 3d3d
00000030: 0c5f b73d 09bc d43e 9db1 cdbd 9817 92bd
00000040: 5630 b2bc 1162 003e 2899 063e 30ef 923b
00000050: 0111 98bd 4ac8 a0bb 6e9f 273e bc47 7d3d
00000060: f5d6 353e 010d 683d efec c13d 9818 dd3d
00000070: ed31 b73e 117b 853e 4ecc 013e 7b01 c43d
00000080: dd1b cabd 1ebd 26bc 6c77 3bbc 9688 a23d
00000090: d53f 253d 9bcc 2e3e a651 30bd 6f11 9e3d
000000a0: 81ea f63d a87a 173d c25a b03d 044f 843d
000000b0: 1ce5 dd3d c6aa 393d 0548 d1bc c64c d33d
000000c0: 03ff cc3d 64c2 2a3e d056 5dbd a90e bc3d
000000d0: 2b8f c03d f8fb b83b ba6b bbbd 2e49 1b3f
000000e0: a297 073e 637e f13c ae9e 26bd 1fc8 233e
000000f0: a97d 21bd 40b8 df3d 6f0b 623e 4eb9 e8bc
00000100: 15c4 c93d 7fe0 ff3c 2d38 49bd 2e8c e1bd
00000110: d75d e2bd c379 05bd d2b1 f8bc 01ae ebbd
00000120: f0d3 2fbd a260 20bd 94f3 a8bc c73d e6bd
00000130: 6475 6a3d 2b3a 8dbc e051 e7bb 24ed 62bd
00000140: 1ed2 a9bd 7a44 b8bd a08f 09be 991f 9a3d
00000150: f1e7 17bd d98e 313d 3dd6 b23d 394a 3b3c
00000160: 96d4 7b3d f5fa a33d 035e 53bd 3a36 083d
00000170: 2c39 abbd dfb4 60bd bcdb b8bd be64 02be
00000180: 40dc fabd cc4d 5abd 125a 553d e2c1 fabd
00000190: dd33 5b3d 6e79 693d 9667 b13d 627e 91bd
000001a0: 9f57 0bbe 0ce5 a1bd c641 e9bd 0da5 833d
000001b0: 4e1d d6bc b9b6 0a3d 8887 7cbd 411e 063d
000001c0: 77b6 d0bc 45dc 78bd e15b 4f3c 83bc f3bd
000001d0: 5856 d8bd 67d6 e1bd a8e7 8ebd b7be 66be
000001e0: 3cd5 35bd 3625 553d eee2 18be 156e 8bbd
000001f0: 38b4 d3bd 6c54 0ebd 07a7 26bc ae5d c63d
00000200: cf5d 813d 4147 2cbd 6718 f63d 6b37 b03c
00000210: 3d42 913d 382e 89bc b8c7 adbc ccad 933d
00000220: ba34 a73d 73a4 54bd 63bb 4e3d 8b5e 8abd
00000230: 1670 0bbe 1db9 7c3d 0d0d bf3c 3383 8e3d
00000240: 259f df3d aa1a 813b 9d82 bb3d 2767 1f3d
00000250: 2ee1 3fbd e25a 9d3d a49f 0c3d ca8a 8f3c
00000260: 1d91 8ebc d56a e23c faa4 00bc ef23 efbc
00000270: 6372 95bb 65a5 a53d c2f2 0e3e 0e28 04be
00000280: 9d5b 3d3d 24a7 903b b4e7 f4bd 82fd 98bb
00000290: bd1b 24bd 0910 423d 886a 8d3d 1d8d 50bc
000002a0: f2f6 9c3d e460 57bd e0f1 283d 171c 1a3c
000002b0: c4de c2bd af00 8b3b 6520 da3d b4c2 adbd
000002c0: 4ed5 08bd 82a8 d7bb 5b0b d2bc 28d7 c2bd
000002d0: c2d7 babd 79da a03d 8039 e3bd f79d 18be
000002e0: a485 7a3d 97a8 39bd 23c1 b83c 4897 643d
000002f0: 2b16 eebd 56dd 2c3d ffa1 9ebd 47be 5cbd
00000300: 6251 d83d d4a0 e53d 3ca9 07bd a50c d93d
00000310: e330 bb3d 5f6c a6bd 1564 aa3e 4bea b3bd
00000320: 5bc0 a33d 4713 a93d 10f4 633c 7cd6 2bbd
00000330: cef1 163d 6913 a63e 0064 19bd 494f 473d
00000340: 1470 aebd 63cb b8bb 32b3 363e 6a4b a03c
00000350: c8db 413c e797 123c 2a20 db3c e113 763d
00000360: 5d77 9c3d ebc7 c93d 14df 523d 8832 cf3d
00000370: a2ba b23e 3342 7e3e 75f4 d6bc 387d cabc
00000380: e893 6bbd 0669 64bd 1b50 c83d b83a cb3d
00000390: 47c5 35bd 1b59 2f3e c865 ae3d 0ff9 673b
000003a0: 4f8a 7c3c 3e25 003e eaca 1c3e 030f 613d
000003b0: fbcc f53d a520 7cba 74cb ec3d a157 ce3d
000003c0: 658b 4fbd 4015 3f3d 9c65 563d 1071 483d
000003d0: fee7 86bd bfa0 d13d 3928 0d3e eccc 383f
000003e0: 8834 adbd 3721 5a3d a935 343d bd31 8a3d
000003f0: 5e37 d03d 9b34 c13d 2276 223e 328d 143e

lstm.bias_hh_l1 f4 [256]
0.053866476 0.11336249 -0.06462417 0.054125004 -0.04699622 -0.08254089 0.15839809 -0.055618286
-0.0024113543 0.13186654 -0.05725204 -0.077825226 -0.087453336 0.34581795 -0.009765243 0.14683631
0.06577115 0.10498195 0.1502479 0.011165039 0.0219628 0.061472524 -0.06537053 0.12217115
0.1347339 0.0073205284 0.089563005 -0.010984018 0.2723984 0.075874805 0.079517566 0.017705753
-0.0021140084 0.06100864 0.19333932 0.09651078 -0.0389787 0.14093657 0.020008244 -0.0433023
0.13625194 -0.085259296 0.19242804 0.13219209 -0.003940722 0.18835822 0.06683268 0.02830486
-0.07225851 0.027541172 -0.084399104 0.13126704 0.022979064 0.047600925 -0.08616698 0.7335756
-0.016896233 0.21565019 0.021072576 0.038210686 -0.039261896 0.085255995 0.010284137 0.06257549
-0.042530723 0.07830412 -0.079345405 -0.06527498 0.045621514 -0.116478644 0.00054286973 -0.048198886
-0.053827085 -0.016009208 -0.04435324 -0.081784494 -0.091718696 0.017442474 -0.03838947 -0.061229497
-0.02059977 -0.13581751 0.054679796 -0.012265458 -0.09138444 -0.025568169 -0.017574467 -0.02556243
-0.0654515 -0.0049114823 -0.12190249 -0.09109102 -0.064236924 -0.1523968 -0.10934408 -0.07404619
-0.10920879 -0.05706796 -0.11697417 0.10306254 -0.0774627 0.05492121 0.08587217 0.013787674
0.07853665 -0.10904467 -0.045872994 0.11883301 0.09166701 -0.09144241 0.10580417 -0.13223587
0.07345617 0.09527821 0.074484445 -0.04582116 -0.089444384 0.057391793 0.11586398 -0.22147423
0.091027945 0.11542232 -0.15240899 -0.09043952 -0.12858634 0.050483763 -0.0088296225 0.09345771
0.108715676 -0.038838666 0.015309626 -0.05705177 0.11475437 -0.08001331 0.07730096 0.028597202
-0.104969114 0.008138541 0.09115024 -0.08438297 -0.082572006 -0.097468495 0.027907172 0.052316222
0.034845263 -0.09299602 0.05598759 0.12040189 -0.07953659 -0.06690264 -0.055170007 0.02982428
0.08402375 0.14476815 0.09403949 -0.14044634 -0.04097284 -0.019232413 -0.0886863 0.06121296
0.032611992 0.013008141 -0.01243407 -0.0030943756 0.07778423 -0.094270505 -0.021112466 -0.044810105
-0.08971052 0.023781728 -0.029391913 -0.118390754 0.014546096 -0.08447691 -0.04450788 -0.047834907
-0.024856986 0.048548963 0.035396256 -0.07083455 -0.021038227 0.111017294 0.020628858 0.045971144
0.04940979 0.14199969 -0.042163577 -0.05428707 0.09807252 -0.041490696 0.11546939 0.11065196
0.09721257 0.08595285 0.02709572 0.1821088 -0.082840286 0.12228877 0.28050348 0.020208467
0.109144434 -0.045898017 -0.09593215 -0.06889109 -0.08327962 0.22052588 -0.09032358 0.16700108
-0.05196765 0.10902979 0.06502767 0.13021205 -0.10040785 0.05425738 -0.024694527 0.101584226
0.056212526 0.0204834 0.19728012 0.023835793 0.2721931 0.13383202 0.17948404 0.03421233
-0.08161344 0.13240483 0.21127233 -0.028591624 0.0932158 0.036065213 0.09321104 0.079038195
0.13176657 0.12408233 0.19478229 -0.009647901 0.15323941 0.09351357 0.011915823 0.06952192
-0.011069271 0.030837953 0.019497527 0.01249929 -0.022382727 0.15303245 -0.07956394 0.67745936
-0.024441037 0.2052231 -0.06550545 0.05489129 -0.0045508747 0.106430195 0.11328731 0.14896457
00000000: 18a3 5c3d 982a e83d ad59 84bd 2eb2 5d3d
00000010: 1c7f 40bd 330b a9bd 1c33 223e 00d0 63bd
00000020: d007 1ebb 0608 073e 1d81 6abd d562 9fbd
00000030: bc1a b3bd 0d0f b13e 66fe 1fbc 425c 163e
00000040: 06b3 863d c700 d73d 96da 193e 91ed 363c
00000050: 54eb b33c 9dca 7b3d fce0 85bd de34 fa3d
00000060: aff7 093e 0be1 ef3b cf6c b73d 50f6 33bc
00000070: ce77 8b3e 4064 9b3d 1bda a23d a80b 913c
00000080: 2d8b 0abb 32e4 793d befa 453e 72a7 c53d
00000090: 21a8 1fbd ad51 103e 54e8 a33c c15d 31bd
000000a0: a185 0b3e 6d9c aebd db0b 453e 5d5d 073e
000000b0: 2c21 81bb fae0 403e 92df 883d 98df e73c
000000c0: 45fc 93bd 069e e13c 70d9 acbd de6a 063e
000000d0: 973e bc3c 30f9 423d 5078 b0bd 9ccb 3b3f
000000e0: f869 8abc 67d3 5c3e 65a0 ac3c cf82 1c3d
000000f0: 15d1 20bd b29a ae3d cc7e 283c 9427 803d
00000100: b234 2ebd e95d a03d d87f a2bd e4ae 85bd
00000110: a0dd 3a3d 5b8c eebd 5f4f 0e3a 326c 45bd
00000120: ca79 5cbd be25 83bc beab 35bd a17e a7bd
00000130: 03d7 bbbd 85e3 8e3c 473e 1dbd c8cb 7abd
00000140: d9c0 a8bc bf13 0bbe ecf7 5f3d 0ff5 48bc
00000150: c427 bbbd 5674 d1bc 54f8 8fbc 4d68 d1bc
00000160: 700b 86bd 80f0 a0bb 03a8 f9bd ee8d babd
00000170: a68e 83bd e80d 1cbe caef dfbd 87a5 97bd
00000180: dca8 dfbd 18c0 69bd 2790 efbd 7412 d33d
00000190: c4a4 9ebd 10f5 603d c0dd af3d b2e5 613c
000001a0: d3d7 a03d d052 dfbd 52e5 3bbd b95e f33d
000001b0: eabb bb3d 2946 bbbd dbaf d83d d768 07be
000001c0: 3070 963d 3921 c33d 4d8b 983d f8ae 3bbd
000001d0: 9e2e b7bd a813 6b3d 184a ed3d 24ca 62be
000001e0: dc6c ba3d 8a62 ec3d 1a11 1cbe 5b38 b9bd
000001f0: 23ac 03be 10c8 4e3d 1faa 10bc c266 bf3d
00000200: 53a6 de3d 4b15 1fbd 3ad5 7a3c 1eaf 69bd
00000210: 5704 eb3d 05de a3bd f74f 9e3d ae44 ea3c
00000220: 0cfa d6bd 8457 053c faac ba3d fbd0 acbd
00000230: 831b a9bd 909d c7bd 959d e43c 8949 563d
00000240: e8b9 0e3d b374 bebd 3e53 653d 4495 f63d
00000250: 14e4 a2bd 4004 89bd f2f9 61bd 0c52 f43c
00000260: a514 ac3d 1a3e 143e c797 c03d 2ad1 0fbe
00000270: 23d3 27bd 4b8d 9dbc 2aa1 b5bd 71ba 7a3d
00000280: 2794 053d 1920 553c 45b8 4bbc 02cb 4abb
00000290: 574d 9f3d e510 c1bd 0df4 acbc cd8a 37bd
000002a0: 26ba b7bd e6d1 c23c 4fc7 f0bc da76 f2bd
000002b0: c052 6e3c 3b02 adbd e54d 36bd 89ee 43bd
000002c0: e1a0 cbbc 47db 463d aafb 103d b411 91bd
000002d0: 5c58 acbc 095d e33d dafd a83c 3d4c 3c3d
000002e0: ec61 4a3d 5e68 113e b7b3 2cbd 1e5c 5ebd
000002f0: 3fda c83d 26f2 29bd 377b ec3d 7f9d e23d
00000300: 6217 c73d 0c08 b03d d8f7 dd3c bb7a 3a3e
00000310: 2ba8 a9bd 8972 fa3d 279e 8f3e 3a8c a53c
00000320: 1e87 df3d 8fff 3bbd 1378 c4bd c616 8dbd
00000330: 818e aabd 89d1 613e 92fb b8bd 5502 2b3e
00000340: 08dc 54bd 034b df3d 3a2d 853d 4f56 053e
00000350: a2a2 cdbd fd3c 5e3d 2d4c cabc 640b d03d
00000360: 1b3f 663d cecc a73c cd03 4a3e 4843 c33c
00000370: e55c 8b3e 430b 093e aaca 373e 3a22 0c3d
00000380: f224 a7bd 2295 073e c657 583e fb38 eabc
00000390: ede7 be3d 1eb9 133d 6ee5 be3d c7de a13d
000003a0: d1ed 063e e01e fe3d 0275 473e 3b12 1ebc
000003b0: cbea 1c3e 0b84 bf3d 963a 433c 8261 8e3d
000003c0: e35b 35bc e09f fc3c 47b9 9f3c d2c9 4c3c
000003d0: fb5b b7bc 8ab4 1c3e 6bf2 a2bd fa6d 2d3f
000003e0: 9238 c8bc 0126 523e b927 86bd b0d5 603d
000003f0: 811f 95bb 13f8 d93d 2d03 e83d 2b8a 183e
